models/direct_identity_residual_block.pth (torch, 132786 bytes, 14 tensors)

block_1.0.weight f4 [16, 3, 3, 3]
000000 3f 31 40 3f 0e 7f ac 3e db 9b 95 3d 6a 64 1c 3f
       0.75075144 0.33690685 0.07305118 0.6109072
000010 6a cb a5 be f0 53 2a be 57 25 9c bc 06 ed e7 be
       -0.32381755 -0.16633582 -0.019060774 -0.45298022
000020 ec b4 ef be 8e 20 b3 3d d8 d2 c2 3d 03 df 11 3e
       -0.4681772 0.08746444 0.095128715 0.14245228
000030 59 2a c1 be 04 6f 68 be fb f1 2b be 10 ef b8 be
       -0.3772762 -0.22698599 -0.16791527 -0.3611989
000040 3e 3e 71 be 82 13 4c 3d 56 9d 49 be 8a c6 f3 3e
       -0.235589 0.04982329 -0.19688925 0.4761241
000050 f8 1b 03 3f 84 82 67 bd 5e 34 a7 3e 3c 07 ae 3e
       0.5121455 -0.056520954 0.3265714 0.33989894
000060 3b df e9 be b7 57 8e 3d 74 77 91 be 94 7e 48 3e
       -0.45678124 0.06950324 -0.28411448 0.19579536
000070 51 07 84 be b1 00 6b bf 74 fe 2f 3d 7d 14 17 3e
       -0.25786832 -0.9179793 0.042967275 0.1475391
000080 08 c6 f3 be 8b 6a 18 3f 47 50 2a 3f 50 ff 06 be
       -0.47612023 0.5953757 0.66528744 -0.13183331
000090 f1 10 b8 be ec f5 02 bf cc 54 10 bf af 88 79 be
       -0.35950425 -0.51156497 -0.5637939 -0.24368547
0000a0 61 57 e3 3d 49 13 c3 be ae e4 8b 3e 85 98 45 3f
       0.111006506 -0.3810065 0.27322906 0.7718585
0000b0 d6 4a 19 3e f1 d9 67 bc dd c6 80 be 49 be 1b 3d
       0.14969954 -0.014151082 -0.2515172 0.038023267
0000c0 de 1c 10 be cb 14 b2 3e 72 c7 9b 3d 39 94 1d bd
       -0.14073512 0.3478149 0.076064005 -0.038471434
0000d0 2b 46 06 3f 30 3d 96 3e c3 7a f7 be a6 3c 33 bf
       0.5245082 0.29343557 -0.48335847 -0.7001442
0000e0 9e a8 bc 3e 8a 2c 58 3f 20 78 21 3e 71 a4 f0 3d
       0.36847395 0.8444296 0.1576848 0.11750115
0000f0 3c 8e ca bd b4 89 7e 3e ee d7 cf be d8 8d 24 bf
       -0.0989041 0.24857217 -0.4059443 -0.64278936
000100 0a 84 aa be 85 be 4c 3f ec 8d 00 3f a7 75 33 3e
       -0.33303863 0.7997821 0.50216556 0.1752535
000110 64 15 05 3d 94 68 ac bd e1 0c 08 3f c6 66 35 bc
       0.032491103 -0.08418384 0.5314465 -0.011071866
000120 c0 b6 1b bf 36 26 de be 67 2a c4 3e c9 4a d0 3e
       -0.6082573 -0.43388528 0.383136 0.40682057
000130 59 1c 04 3e 21 bf ae be e9 5f 3c 3d 3b e6 f3 3e
       0.12901439 -0.34130195 0.045989905 0.4763659
000140 13 8d 8d be 29 a0 11 bf 16 3d 56 3e 6c a0 1e bf
       -0.27646694 -0.5688501 0.2092174 -0.61963534
000150 6c bc 40 bf db 5d 3a be 3c d7 e4 be f5 73 40 be
       -0.7528751 -0.18199866 -0.4469546 -0.18794234
000160 d7 07 0b 3f 2a 43 a0 3d 12 fc 91 be d8 c2 42 3f
       0.5430884 0.078253105 -0.28512627 0.7607856
000170 d0 59 88 bd 80 ec f2 3d 81 40 b0 3e 3b 71 54 3e
       -0.066577554 0.11861515 0.34424213 0.20746319
000180 9b ab b2 3e c1 a0 9a 3f 76 15 11 3f 9b e4 93 3c
       0.3489655 1.2080308 0.5667337 0.018053344
000190 fe 25 a8 3e bd a3 8f 3e e3 e7 cf 3b 9f f0 5b be
       0.32841486 0.2805461 0.0063447817 -0.21478508
0001a0 55 45 28 3e 0c 69 86 be b9 ea 63 be 7a 7e 1f bc
       0.16432698 -0.2625202 -0.22257508 -0.009734744
0001b0 fa 46 59 bf 5c 3d 12 bf b6 83 cb be 95 7c 2e be
       -0.84873927 -0.57124877 -0.39748925 -0.17039712
0001c0 38 06 d9 3e aa 79 7a 3e c1 8c b8 3e cc 8f 2b 3f
       0.42387557 0.24460474 0.36044887 0.6701629
0001d0 6c 88 c8 3e 68 21 2f bd 0a 57 64 3e 5d 4a 80 3b
       0.39166582 -0.042756468 0.22298828 0.003915115
0001e0 d2 ed 25 be e9 ad e0 bb dc 78 1e be 6c 28 0b be
       -0.16204002 -0.006856669 -0.15475792 -0.13589638
0001f0 73 30 63 3e 46 c8 99 be 02 a5 1c 3f b1 5d 51 3f
       0.2218645 -0.3003561 0.6118928 0.81783587
000200 1c 3c 2a 3f 13 d7 15 3e ae 9c 8c bd dc a5 5e be
       0.6649797 0.14632826 -0.06865822 -0.21742958
000210 d3 76 e6 be 8c d5 07 bf 53 96 54 bf 0f d4 97 be
       -0.4501253 -0.5306022 -0.83041877 -0.29653975
000220 0a 18 8d 3e f0 b8 dc 3d 01 17 d1 bd 5e 6e f4 be
       0.27557403 0.107774615 -0.10209466 -0.47740453
000230 fa a7 a4 be 41 03 2b 3d d8 20 82 3d 53 41 ff 3e
       -0.32159406 0.04175115 0.06353921 0.49854526
000240 d3 6e b7 3e 38 b7 91 3d bf c7 97 bd ec 99 cd 3e
       0.3582674 0.07115024 -0.074111454 0.40156496
000250 53 c2 40 bf e7 5f ae be 9f f8 1a 3e c6 06 82 be
       -0.75296515 -0.34057543 0.15133904 -0.25395793
000260 37 30 23 3f 3a 28 7c 3e 3c 5d 20 3e d6 75 89 3e
       0.63745445 0.2462472 0.15660566 0.26847714
000270 73 e2 d8 bd 2b c9 3d bf b8 54 09 bf 1d d8 5b 3e
       -0.10590067 -0.7413508 -0.53644896 0.2146916
000280 a8 cf 2b be 87 29 28 3f b0 73 a9 be 9d ff ac 3e
       -0.16778433 0.65688366 -0.33096075 0.33788767
000290 cd 5a af 3e 65 e7 c0 be 9a fd 1b 3e 5c 6b aa bb
       0.34248963 -0.3767654 0.1523346 -0.0052007865
0002a0 6c a1 07 3e fa 94 0c 3f a5 1a c7 be 9b 7b 40 bf
       0.13245171 0.5491482 -0.38887516 -0.75188607
0002b0 64 43 e6 bd e4 19 81 3e 4c b5 1b bf 0d 25 1b 3e
       -0.112433225 0.25215065 -0.6082351 0.15150853
0002c0 33 44 b0 39 de c2 37 be e5 6c f5 3e de 59 d2 bc
       0.00033620148 -0.1794543 0.47934642 -0.025677618
0002d0 f1 85 16 bf 2e 2d 0a 3d f0 7e 18 3f e3 6e 32 bf
       -0.5879813 0.033734493 0.5956869 -0.6970045
0002e0 e0 fe 43 3e a8 60 d4 3e 58 97 ef be 0b 0e cb 3e
       0.19140196 0.41479993 -0.46795154 0.3965915
0002f0 34 12 c8 3e d0 a2 94 3c 44 e5 ad bd fb 70 d3 be
       0.39076388 0.018144041 -0.084909946 -0.41297135
000300 31 f5 b9 3e 69 30 3f 3f 37 16 2f bf 8d a0 5e be
       0.3631988 0.74683243 -0.6839327 -0.21740933
000310 4e 0e 53 3f 04 2a b3 be 32 ab 98 3e 9a c4 8d be
       0.824437 -0.34992993 0.29818112 -0.27689058
000320 e8 8e 17 bf 4f 65 db 3e c5 f1 93 3e 74 ce 40 bf
       -0.5920243 0.4285073 0.28895393 -0.7531502
000330 c2 78 a8 bd a8 47 d9 3e 88 ed 8e be 22 7b 9c 3c
       -0.08226158 0.42437482 -0.27915597 0.019101683
000340 eb 20 9a be a1 ba 1b be 01 0f 51 3e ff fd b3 3e
       -0.3010324 -0.15207912 0.2041588 0.3515472
000350 5f d7 f6 bd b4 c9 98 be d6 ed f2 3e 3a 97 5c 3e
       -0.120527975 -0.29841387 0.4744708 0.21542063
000360 a6 c2 1b 3f a2 1e bb bd 9d 6f d6 3e cc fc b2 3e
       0.60843885 -0.09136702 0.4188203 0.34958494
000370 cc 32 5a bf c8 f0 37 be 1c 1c cf be 80 2d 3b bf
       -0.8523376 -0.17962945 -0.40451133 -0.731163
000380 eb c4 b5 3b c7 88 16 bf ad 90 63 bf 34 15 1d be
       0.005547156 -0.58802456 -0.8889263 -0.1534012
000390 ca c8 f1 bd 55 ed 62 bf b6 17 61 3e a2 bb ba be
       -0.118058756 -0.8864339 0.21981701 -0.36471277
0003a0 c7 34 60 3c a7 8c 34 3f 75 b6 44 3e 58 0a d7 3c
       0.013684458 0.7052712 0.19210227 0.02625005
0003b0 c0 37 c6 3e f0 3d 3f 3e d3 b3 c7 be f0 d9 fc bc
       0.3871441 0.18675971 -0.39004382 -0.03086564
0003c0 83 46 94 3d db 32 1b 3e ac 8b da bd 3c c0 ac bd
       0.072400115 0.15156119 -0.106711715 -0.08435103
0003d0 95 b9 07 3f 10 95 6c bc 36 f1 c0 be 84 f5 23 3e
       0.5301755 -0.014439836 -0.3768403 0.16011626
0003e0 f0 af af 3d e5 97 1a bd 93 bf a5 3e 27 d5 9f be
       0.08578479 -0.037742514 0.32372722 -0.3121731
0003f0 57 1e b7 be 2b c8 94 3e 09 70 34 be 2f e6 d5 be
       -0.35765335 0.29058966 -0.17620863 -0.4177718

block_1.0.bias f4 [16]
000000 a5 e3 b9 3e 56 85 97 be f9 e5 c9 3c 36 53 ad 3b
       0.36306491 -0.29593915 0.024645792 0.0052894605
000010 ad 71 e1 bd 17 9b ef 3e 50 db e6 3e 10 5e 6e 3e
       -0.1100801 0.46798012 0.45089197 0.2327807
000020 ef c1 28 3f b0 6e b5 3d 3c d2 09 3f a5 40 a4 be
       0.6592092 0.088590026 0.5383642 -0.3208057
000030 b3 00 71 3d ed 0d 3e 3e 03 dc 35 be bb 8b 96 bd
       0.058838557 0.1856 -0.17759709 -0.0735087

block_1.1.weight f4 [16]
000000 19 f3 63 3f 7a 3d 86 3f f2 30 9f 3f 94 ae 5e 3f
       0.8904281 1.0487511 1.2436812 0.86985135
000010 02 b8 4a 3f c5 ae 7e 3f 2c dc e3 3f 4e ee 77 3f
       0.79187024 0.9948543 1.7801566 0.96848
000020 fd 66 a0 3f bc a8 57 3f d0 0f 1b 3f a1 72 9d 3f
       1.253143 0.84241843 0.60571 1.2300607
000030 7e 12 c8 3f da a2 7c 3f 8a 9d 4e 3f dd 10 8f 3f
       1.5630643 0.9868599 0.80709136 1.1177021

block_1.1.bias f4 [16]
000000 cf b9 85 bd fc 26 2a bf e4 10 c3 bc 91 54 17 be
       -0.06529581 -0.66465735 -0.023811765 -0.14778353
000010 0c 96 04 bf e3 88 7f 3c 34 78 ab 3d 3a 21 bd 3d
       -0.51791453 0.015596601 0.08372536 0.09234853
000020 fe 49 de be 22 92 1f 3f d9 eb 1d 3f 70 46 87 bf
       -0.43415827 0.62332356 0.61688 -1.0568371
000030 91 cc 07 bf 74 dc 25 bd dd 4c 1c bf a8 b8 16 3f
       -0.5304652 -0.040493444 -0.61054784 0.58875513

block_1.1.running_mean f4 [16]
000000 2a e5 a1 3e e1 db bd be cb 1c 5c 3c 85 fb c4 bd
       0.3162015 -0.37081817 0.013434599 -0.09618286
000010 a2 4d e8 bd 5b 91 e9 3e 11 5b e4 3e 89 32 4a 3e
       -0.11342932 0.4561871 0.44600728 0.1974584
000020 3b 42 37 3f 0a 1f 6f be 80 9f b9 3e b1 fb cb be
       0.71585435 -0.23351684 0.362545 -0.39840463
000030 65 66 38 be 3b 68 b9 3e 77 07 98 3e 36 a4 9d bd
       -0.1800781 0.36212334 0.29693195 -0.076973364

block_1.1.running_var f4 [16]
000000 31 68 f1 3e d3 59 69 3f 75 cc ca 3e 8e eb 48 3f
       0.47149804 0.91152686 0.39609113 0.7848443
000010 44 29 0d 3e 61 7e 55 3e cd 2c 2b 3f ef 70 0a 3f
       0.13785273 0.20848991 0.66865236 0.54078573
000020 b5 25 bd 3f f9 e1 1a 40 77 7a 10 3f ad 7c 06 3f
       1.4777132 2.4200423 0.56436867 0.5253399
000030 5e 14 4a 3f ea b6 a9 3e 00 10 60 40 92 1f 81 3f
       0.7893733 0.33147365 3.5009766 1.008776

block_1.3.weight f4 [3, 16, 3, 3]
000000 21 78 a3 be 6c c7 26 bd 6b 1c 9b bd 15 e7 45 be
       -0.3192759 -0.040717527 -0.0757378 -0.19326432
000010 26 64 92 3e 5f 23 90 bd 73 d8 13 3e ae 1b ce 3e
       0.28592032 -0.070379965 0.14438038 0.40255493
000020 fa 24 0b bd 60 6a a3 bd fb ec 94 be b5 68 81 bd
       -0.03397081 -0.07979274 -0.29087052 -0.063187994
000030 42 fe 7d 3d dd 72 00 be 75 cf 10 be de 50 4b be
       0.062010057 -0.12543817 -0.14141639 -0.19855067
000040 e5 ce 0a 3e aa 92 05 bd a2 87 6a bd f7 f6 43 3f
       0.13555487 -0.032610573 -0.057258256 0.76548713
000050 b4 28 01 bf 1f bc 78 3e 93 97 be be 00 59 0c 3e
       -0.50452733 0.24290513 -0.37225017 0.13705826
000060 f9 ac c2 bd 80 44 ef be 74 36 8c be ab 09 40 be
       -0.09505648 -0.4673195 -0.27385294 -0.18753688
000070 ba 41 99 be 4e fc 31 be 07 01 ec be 06 c1 44 bf
       -0.29932958 -0.17381403 -0.46094534 -0.7685703
000080 ed 13 66 be 61 99 1d 3d 32 6a 09 3e 32 6b 98 3e
       -0.22468539 0.03847635 0.13419417 0.29769284
000090 55 fe f7 bd b9 02 74 3e a6 26 93 3e 17 0a 93 3e
       -0.12109057 0.23829164 0.28740424 0.28718635
0000a0 0a 03 40 3e d1 9a b4 be fd 96 26 be 23 c5 fe bb
       0.1875116 -0.35274366 -0.16268535 -0.0077749654
0000b0 20 0a 9c 3c 80 97 63 3f 97 ee 50 3e 0a 5e 02 be
       0.019047797 0.88903046 0.20403515 -0.12731186
0000c0 d6 d4 8e 3e dc 50 5f 3e ca 7a 0b 3f cb 8d 8c 3e
       0.27896756 0.21808189 0.54484236 0.2745193
0000d0 3d 7c b2 3e 20 3c 19 3e 29 b3 84 be 74 15 9f 3d
       0.3486041 0.14964342 -0.25917938 0.07767764
0000e0 a5 83 bc be fb c0 ce be 00 ad 0a bf 75 fc 82 3e
       -0.36819187 -0.40381607 -0.5417023 0.25583234
0000f0 f4 1c 92 3e a0 fc d2 3e 47 9a 1f bf fa e6 1f 3e
       0.28537714 0.41208363 -0.62344784 0.15615454
000100 e3 a6 0e bd 11 01 87 be 5e 29 b9 3d d5 0e c4 be
       -0.034827124 -0.26368 0.09041093 -0.38292566
000110 3e ab b4 be 02 41 54 bd 53 ca ff be 17 fe 0f bf
       -0.35286897 -0.05181981 -0.4995905 -0.56247085
000120 c0 43 13 3d 08 e0 a6 3e cd 12 0d bf 4e ec 95 3d
       0.035953283 0.32592797 -0.5510681 0.07320462
000130 77 07 f2 3e 2b 29 ef 3e ce e6 db 3e 5e 94 02 3f
       0.4727132 0.46711096 0.42949528 0.5100764
000140 6f cd 10 3f ef 8f 02 bf 70 40 0f bd 04 7e d8 bd
       0.56563467 -0.51000875 -0.03497356 -0.105709106
000150 36 a3 18 be df ca a8 3d d9 0c 66 be 34 9f 81 be
       -0.1490601 0.082418196 -0.22465838 -0.25316775
000160 a3 cc 19 3e 44 83 47 bb f9 cf ec be 6f 30 7a 3e
       0.15019469 -0.003044323 -0.4625242 0.24432538
000170 9e e5 08 3f bc 38 e7 3d fa ba 62 3f 84 90 60 3f
       0.5347537 0.11290118 0.88566554 0.87720513
000180 f7 8b fb bd 77 cc 93 3e a2 70 99 be a1 63 39 be
       -0.122825556 0.28866932 -0.29968745 -0.18104412
000190 3b 84 34 3d 5a 80 71 3c f8 31 1a bf 2b db 87 3c
       0.044071417 0.014740074 -0.60232496 0.016584
0001a0 d5 3c 8b 3c 99 47 4d be 09 52 71 be 35 32 df be
       0.01699678 -0.20046844 -0.2356645 -0.43592992
0001b0 ac c8 80 3e f8 47 2a 3f b6 97 27 bd eb aa cc be
       0.251531 0.66516066 -0.040916167 -0.3997415
0001c0 cd 6f b9 3d 11 12 a7 3d 0c b1 1e bf 0b b3 b6 be
       0.090545274 0.08157743 -0.619889 -0.35683474
0001d0 a5 32 22 be 44 d9 73 3d c1 a2 04 bd 41 8f dc 3e
       -0.15839632 0.059533373 -0.032381777 0.43078044
0001e0 c6 6d b0 3c 00 cd 19 3f 55 85 a0 3d 3b b3 74 be
       0.021536719 0.6007843 0.07837931 -0.23896496
0001f0 98 7c 27 bd 42 7d 15 bf 13 28 e7 be b5 5c 2e 3c
       -0.040890306 -0.58394253 -0.45147762 0.01064222
000200 22 11 3c 3e f2 4e 74 be df 41 7c 3d c6 b2 1c 3e
       0.1836591 -0.2385824 0.061586257 0.15302572
000210 38 5a ab 3e d0 36 85 3e f3 13 4d 3d ca e6 a0 be
       0.3346727 0.2601838 0.050067853 -0.31426078
000220 24 36 3e bf ba a3 b2 bd 99 e5 33 be 74 df 00 3d
       -0.7430136 -0.087226346 -0.17568053 0.0314631
000230 62 c1 49 bf 52 46 ce bd 15 42 35 bf e4 b9 1f bf
       -0.78810704 -0.10072006 -0.7080396 -0.6239302
000240 f8 8b 31 bf 0f 31 10 3e 64 47 0b 3f 68 f0 40 be
       -0.693542 0.14081214 0.5440581 -0.18841708
000250 b0 cf d2 3b e4 6d 71 be f3 ce 0c 3e bf 9d 13 3f
       0.0064334497 -0.23577076 0.1375082 0.57662576
000260 cd bc c5 be 99 ff ad be cc 11 34 bf 49 28 7c 3d
       -0.38620606 -0.33984068 -0.70339656 0.061561856
000270 f0 3e 87 be 8b f5 af be 6b 15 31 3e d2 cd 2d be
       -0.26415205 -0.34367022 0.17293327 -0.16973045
000280 a0 7d c3 3e e9 68 69 3e 6b f2 24 bf e3 53 c2 be
       0.38181782 0.22793926 -0.644324 -0.37954625
000290 f2 3c 2d bf 41 24 9d be c5 ee 62 be d8 72 d4 be
       -0.6767112 -0.30691722 -0.22161396 -0.4149387
0002a0 da 4f 1e bf 10 9f c6 3d 12 dd 8d bd ad 99 d8 3c
       -0.61840594 0.096983075 -0.069269314 0.026440466
0002b0 ca 90 49 be 71 00 80 be a5 29 b8 bd 59 42 ca be
       -0.19684139 -0.25000337 -0.08992318 -0.39503744
0002c0 66 24 ba 3e 5a 25 91 be 76 34 45 be ee ed 80 3e
       0.36355895 -0.2834881 -0.19258294 0.25181526
0002d0 f6 15 7c 3d 2d 39 0d 3e 51 70 9b 3d e2 ac 0c 3e
       0.06154438 0.13791342 0.07589782 0.13737825
0002e0 1f de 0c bf a4 f3 e5 3d db 89 b5 3e b4 59 ae be
       -0.5502643 0.112281114 0.35456738 -0.34052813
0002f0 7c 9d 3d be 7d 55 0c bd 59 06 09 be 64 cb b9 3e
       -0.18517107 -0.034261215 -0.13381328 0.36287987
000300 c1 63 22 3f 12 c5 07 bf 2a 95 88 be e1 dd 33 3d
       0.6343346 -0.5303508 -0.26676303 0.043912772
000310 2c e1 9d 3e 51 3f 17 be 40 e9 a4 3e 2d f2 ed be
       0.30835855 -0.14770247 0.32209206 -0.46473828
000320 10 6c db bd 78 a0 c4 3e ed 86 4a 3d f8 25 35 3f
       -0.10713971 0.38403678 0.04944508 0.7076106
000330 db 2c 92 bf b5 a6 af 3e 41 09 11 3f 44 b8 32 3e
       -1.1419939 0.34306875 0.56654745 0.17453104
000340 70 84 b2 bd e8 ab 07 bf 29 2e bb 3d 79 9d 01 3f
       -0.08716667 -0.52996683 0.09139664 0.5063091
000350 52 18 42 3e 17 1e 5d 3e f3 b6 16 3e b5 e8 04 3e
       0.1895459 0.2159351 0.14718227 0.12979396
000360 74 97 43 bf cf d2 6d 3e f2 de cc 3e 22 0c 59 be
       -0.76402974 0.23224948 0.40013844 -0.21196035
000370 b3 3f 34 3f 56 66 fc 3e 98 d0 1a 3e ed 10 1e 3f
       0.704097 0.49296826 0.15118635 0.61744577
000380 bc b8 c2 bc ac 4e 2f be de 00 70 be c4 09 b4 be
       -0.023769729 -0.17119855 -0.23437831 -0.351637
000390 4c 91 ad 3c 2e 6a 99 be c6 4d e7 be 4f 7f 8f 3d
       0.021187447 -0.2996382 -0.45176524 0.07006704
0003a0 0e 11 2b bf 77 c4 ea bd 6c 86 43 be c5 5f b3 3d
       -0.668229 -0.11463254 -0.19094247 0.08758501
0003b0 9f fd cd bd 08 7b 33 be 42 5a fc 3d cc 30 9a 3e
       -0.1005814 -0.17527401 0.12321903 0.30115354
0003c0 60 9d 49 be ba c5 cc bd 5c f7 07 3e 10 08 d6 be
       -0.1968894 -0.09998651 0.13277954 -0.41803026
0003d0 1e e9 eb be 69 c7 8f bf 23 cd c8 3e 2f 03 c7 3d
       -0.46076292 -1.123273 0.39219007 0.09717404
0003e0 81 c0 4e 3e fd 77 12 bf 1e 3d 1c be b3 d1 16 bf
       0.20190622 -0.5721434 -0.1525769 -0.58913726
0003f0 e2 03 a3 3f cf 99 d5 be 1f 1a 9c be d1 3c 51 be
       1.273556 -0.4171891 -0.3048868 -0.20433356

block_1.3.bias f4 [3]
000000 13 89 ad be a3 66 90 3e f3 f0 0b 3d
       -0.33893642 0.28203306 0.034165334

block_1.4.weight f4 [3]
000000 d0 ea 22 3f 55 c1 40 3f 2f 99 40 3f
       0.63639545 0.75295 0.7523374

block_1.4.bias f4 [3]
000000 e3 8f 53 be bd 8e 64 be b5 e7 50 be
       -0.20660357 -0.22320075 -0.20400889

block_1.4.running_mean f4 [3]
000000 fd 76 3c c0 5c 0f 39 c0 f0 4a 95 c0
       -2.9447625 -2.8915625 -4.6653976

block_1.4.running_var f4 [3]
000000 b1 00 d5 41 33 ef ce 41 20 24 b3 41
       26.625338 25.866796 22.39264

linear_1.weight f4 [10, 3072]
000000 52 52 d7 3e 16 2b ab be 11 f5 92 be a3 68 8e bd
       0.42054993 -0.3343131 -0.28702596 -0.069535516
000010 f5 f6 30 be 1c c0 81 be ec a1 d3 bd f0 85 68 bd
       -0.17281707 -0.2534188 -0.103336185 -0.056768358
000020 c4 51 40 be 44 28 ac bd e1 83 d9 be d6 c3 4e be
       -0.18781191 -0.084061176 -0.42483428 -0.20191893
000030 78 d5 bd 3e 4b 15 0d 3e b1 87 b2 be 07 0e a6 be
       0.37076926 0.13777654 -0.3486915 -0.32432577
000040 ae e0 27 3d 77 8c 82 3d bb 08 50 bc 9b c4 1b be
       0.040985756 0.06374448 -0.012697394 -0.15211718
000050 9b f6 2e 3e 7a 36 1b be fe 8f 88 3d c0 b9 c4 be
       0.1708626 -0.151575 0.06668089 -0.38422966
000060 a7 a5 52 be 19 5a bd 3e c4 58 e0 3e a4 a5 d7 3c
       -0.20571004 0.36982802 0.43817723 0.0263241
000070 64 2c f9 3e 8b fa be 3d ac 6b 65 3e 57 85 3a 3e
       0.4866668 0.09325131 0.22404355 0.18214928
000080 fd 03 ae 3e c6 20 e7 bb 52 d9 b2 3c f0 ea 34 3e
       0.33987418 -0.0070534674 0.021832142 0.17667747
000090 45 19 68 be b8 8e 99 3e 46 31 11 3f a5 e3 7b 3e
       -0.2266589 0.29991698 0.5671581 0.24598558
0000a0 29 9f a1 be e9 ac 78 be 2a 12 c7 be f7 86 21 3e
       -0.31566742 -0.2428471 -0.38881046 0.15774141
0000b0 cb 37 5b be 6c ef f0 3e 8c c4 dd bd a1 a8 a3 be
       -0.21408002 0.47057664 -0.10828504 -0.3196459
0000c0 90 3b bb 3c 83 25 97 be d3 7e a3 3e 4b 32 a2 3d
       0.02285555 -0.29520807 0.31932697 0.07919749
0000d0 20 3f ad be 1e ef bb 39 08 bb a3 3e 4c 18 75 be
       -0.33837223 0.00035845576 0.3197863 -0.2393505
0000e0 e3 ad f9 bd f9 13 95 3e 86 07 4a bf da 54 5b bd
       -0.121913694 0.291168 -0.7891773 -0.053547718
0000f0 51 00 04 bd bc d5 9e bd d5 a2 cf 3e 3d 3d 3e bc
       -0.032226864 -0.0775561 0.40553918 -0.01161128
000100 b7 6c 6a bd 7c 13 18 bd ab c4 56 bf a4 9c 6e 3d
       -0.057232585 -0.037127957 -0.8389384 0.058254853
000110 75 18 0c 3f 2b 1d 4b be 02 b4 fe be 7b f7 9d 3e
       0.5472482 -0.19835345 -0.4974671 0.30852875
000120 9c 7a 88 be be 7a f2 be 28 12 5c bd 67 62 fd 3e
       -0.26656044 -0.4735927 -0.053728253 0.49489138
000130 b4 84 34 3e 1a 94 de bd db 56 47 be b1 11 64 bc
       0.17628747 -0.10868092 -0.19466726 -0.013920234
000140 07 6a c9 be 12 f3 b1 be bc 84 02 3d 62 fc ca bd
       -0.39338705 -0.3475576 0.031864867 -0.099114195
000150 ee d0 5a 3c c1 63 06 bf 92 e8 a1 be e9 58 02 bf
       0.013355477 -0.5249596 -0.3162275 -0.50916916
000160 da 70 59 3e b3 f9 5a be 1b 59 d1 bd 16 4f c5 3e
       0.21234456 -0.21384315 -0.10222074 0.385369
000170 a7 51 f4 3e 99 f1 16 bf 63 87 94 bb 54 3a 2f 3e
       0.47718546 -0.589624 -0.004532741 0.17112094
000180 0d d8 6b bd c8 b2 bc bc ea c8 02 be 14 9d ab 3e
       -0.05757909 -0.023034468 -0.12771955 0.3351828
000190 75 44 79 be a6 6e 12 bf 55 18 58 3e 30 8e 90 be
       -0.2434252 -0.57200086 0.21103032 -0.2823348
0001a0 21 b5 5f bd 1b 37 30 be 68 3d c6 be d5 cc f7 3e
       -0.054616097 -0.17208521 -0.38718724 0.48398462
0001b0 91 4a 63 ba 67 d0 10 3d a2 4a 9a be c5 01 09 bf
       -0.0008670474 0.035354998 -0.30135065 -0.53518325
0001c0 9d 9d 91 3d 4a 91 a3 3e 3f 38 aa 3e d2 12 c2 be
       0.071101405 0.31946784 0.33246037 -0.37904984
0001d0 4b 90 54 be 5f c3 89 3d 81 1c f5 3d db 9c a7 be
       -0.20758168 0.06726717 0.11968327 -0.3273686
0001e0 0c c8 64 3e 33 b9 d0 3d 7b 01 c1 3e dd 5f c5 be
       0.22341937 0.10191574 0.37696442 -0.385497
0001f0 fa aa 27 3f 01 c5 17 be 7b e9 21 3d bd c6 06 bf
       0.65495265 -0.14821245 0.039529305 -0.52647
000200 fa d6 d4 bc dc b9 5a be 49 7a 28 be 8e cf 91 3d
       -0.025981415 -0.21359962 -0.16452898 0.07119666
000210 6f 0f 64 be 9a 05 ce 3e 69 d6 03 bd cd 36 20 be
       -0.22271512 0.4023865 -0.0321869 -0.15645905
000220 29 70 c6 bc f2 e0 dc 3e a8 40 92 be 24 07 e8 3e
       -0.024223404 0.4314037 -0.28564954 0.45317948
000230 31 49 e7 3d 40 f3 03 bf 61 e9 03 be 27 f5 93 be
       0.11293257 -0.51543045 -0.12881996 -0.28897974
000240 82 ea 2d be 25 16 a9 be fe 5d 99 bd c8 67 34 3e
       -0.16983989 -0.33024707 -0.07488631 0.17617714
000250 95 39 01 bd b0 47 3b bf cb a8 26 3e b3 94 84 3e
       -0.031549055 -0.7315626 0.16275327 0.25894699
000260 09 82 c3 3d f6 67 2c be 05 21 7a be 88 90 e0 bd
       0.095462866 -0.16836533 -0.24426658 -0.10965067
000270 72 ef 7c 3d fa 8c 09 3c e7 28 93 3d cd 56 99 be
       0.06175179 0.008395428 0.07185536 -0.29949036
000280 4a bc 4a 3e f8 6d cd 3c 9e 5e 9b be d8 57 6c 3e
       0.19798389 0.025076851 -0.30345625 0.23080385
000290 53 32 73 be a0 a8 e3 be b6 cd 84 be a7 b6 32 be
       -0.23749666 -0.44464588 -0.25938195 -0.17452489
0002a0 76 02 e2 be 18 49 df 3d 4b a4 98 be 81 6e 9f be
       -0.44142503 0.109026134 -0.29812846 -0.31138995
0002b0 f2 04 8a 3d 99 d4 1a be a3 69 9c bd 55 ef 01 be
       0.067392245 -0.15120162 -0.07637336 -0.12688954
0002c0 1e ac e9 3d 78 70 9c be 1d 52 50 be b8 04 2b 3e
       0.11409782 -0.30554557 -0.20343824 0.16701019
0002d0 10 a2 85 3e 27 30 60 3e 94 d8 06 bd 93 63 98 be
       0.26100206 0.21893369 -0.03292139 -0.2976347
0002e0 50 ef b1 3e 25 e0 9c bd 9a 49 e8 3d d8 c4 34 3e
       0.34752893 -0.0765994 0.113421634 0.17653215
0002f0 ff 8f a1 bc a5 41 dc 3e c5 e3 b5 bd 79 34 91 be
       -0.019721983 0.43018833 -0.08881334 -0.28360346
000300 9a 20 24 be a5 96 70 3d e3 8c 97 be 52 6e 26 3e
       -0.16028062 0.058737416 -0.29599676 0.16253021
000310 3c f3 7a 3d 63 c4 04 3e 82 0e 38 3d 47 4e 99 bd
       0.061267123 0.1296554 0.04493571 -0.07485633
000320 4b ff 15 be 78 cb df be b3 d7 81 3e 99 c3 db bd
       -0.14648168 -0.43709922 0.25359878 -0.10730667
000330 55 f8 ca bd da 99 b9 3e 31 56 b7 bd a6 e2 9d bd
       -0.09910647 0.36250192 -0.089519866 -0.077092454
000340 16 91 17 be 30 2b eb 3e bc f5 19 be f1 b0 66 be
       -0.1480144 0.45931387 -0.15035146 -0.22528435
000350 4c 5f af 3d 75 9a 7a be 87 e4 0a be 82 2d af 3e
       0.08563098 -0.24472983 -0.13563739 0.34214407
000360 a6 f6 d2 be 9d 53 1c 3e 93 7c 35 3e 5a 91 1d be
       -0.41203803 0.15266271 0.17723303 -0.15387478
000370 2c 74 32 3e 40 10 65 3e 55 43 83 3d ba 0e b9 be
       0.17427129 0.2236948 0.06409327 -0.36144048
000380 f7 e6 2a be a2 13 1c 3c 18 a4 7a 3d f7 7b 57 3e
       -0.16689669 0.009526165 0.06119165 0.21043383
000390 3e 2f 54 be fe 25 b6 3d 56 b2 88 bd 69 ea 57 bd
       -0.20721146 0.08893965 -0.0667464 -0.052713785
0003a0 26 2d 07 bb 97 9c d1 bc 3e 5d fb 3d 41 53 c0 3d
       -0.0020626276 -0.025587363 0.12273644 0.093908794
0003b0 bf 36 ed 3d 37 bc b9 be 1c 18 71 bd 87 95 0a be
       0.115827076 -0.3627641 -0.058860883 -0.13533603
0003c0 78 2c a8 bd 8b 41 04 bb 9e 2a 57 3e 31 b2 be 3e
       -0.08211607 -0.0020180668 0.21012351 0.37245324
0003d0 02 ca 91 be 96 68 e4 3d fd 38 85 3e bf d3 a6 be
       -0.28474432 0.11152761 0.2602004 -0.32583424
0003e0 c6 55 a5 bb 2e a3 37 3f 6e ac eb 3d c3 e9 61 3e
       -0.0050456254 0.7173337 0.11507498 0.2206183
0003f0 cb 44 a0 be 59 04 d7 3e 06 20 d6 be 4f 32 e4 be
       -0.31302485 0.41995504 -0.41821307 -0.44569632

linear_1.bias f4 [10]
000000 0b 98 18 3e 40 fc 51 bf 05 06 3d 3f b1 5c 7d 3e
       0.1490175 -0.8202553 0.7383731 0.2474239
000010 60 eb 4a 3f 86 5b ea 3e 97 16 5d bf 5e 82 98 bd
       0.79265404 0.45772952 -0.86362594 -0.074467406
000020 c6 7f 57 3e 9c 06 63 bf
       0.21044835 -0.8868196
