models/resized_residual_block.pth (torch, 478754 bytes, 38 tensors)

residual_block_1.block.0.weight f4 [16, 3, 3, 3]
00000000: b11a 593e a49c 13bf 8ed7 0fbe c08e 083f
00000010: 7545 bfbe 3737 913e 425f d63d 5d22 53bf
00000020: 5fa9 b03e 38ac 4f3e 3571 11bf f204 903e
00000030: dda1 5fbd 304a b1be 28da f23e 2b8f 9ebe
00000040: 212a 84bf 8aaf 553f 4bff 1abd 7b6e cbbe
00000050: d948 4c3e beb2 3a3d e777 14be 0074 1d3f
00000060: 48f3 92be 4ed6 1ebf 3728 e03e 3137 7bbe
00000070: 9e16 283f a421 7cbe 85ed 043e 5fe7 113e
00000080: 4db7 9d3e 3b10 8a3e 8975 5f3f 111c 093d
00000090: 45a2 51bf 2b88 513e 1b6f eabe bc7b 99be
000000a0: 09d3 8dbe f360 99be 626e fb3d e7dc 5d3f
000000b0: ccf9 bcbd cc45 efbe 3666 023f 8a69 97bd
000000c0: c4cc b6bd d5d0 083e fbaf 83bd e257 473e
000000d0: d71a 563f e195 e63d 6be5 39be 6580 05bf
000000e0: 3db4 04be 153a a93d 8ab2 3b3e cb44 9ebe
000000f0: c03c fb3c afd1 523f c2a2 3e3e 4448 a4be
00000100: 90ce 2bbf 800d 68be 0ae5 1ebd 1365 c53d
00000110: fbf6 01bf 7265 993e aa77 613f 7f43 ac3e
00000120: 02ad 82be 1603 22bf 78b4 913d 4df3 c2bc
00000130: da93 a43d 10e5 d6be 39c1 57bc e16b 1b3f
00000140: 39dc bc3e 80e8 4c3d cb6e da3e b490 643d
00000150: c76f 8fbd ff81 8dbf 95b7 d0bd bd54 1a3e
00000160: eceb 073e a232 cb3e a7c6 93be 7dee c63e
00000170: 26b1 bf3d c606 ec3d da6b 91bf 49aa ab3d
00000180: 8826 393d cccd e03d db90 143f 50be edbd
00000190: a3e4 fd3e e0f8 f6bd c4cd f4bb 8245 67bf
000001a0: 2570 e03c 99ee febd 6fe6 233e a24e ed3e
000001b0: 1472 bc3e 54cf 123d 50ca b43e 7105 c9bd
000001c0: 85e9 a6be 10cd 893e 8baa b2be 0e5a 25be
000001d0: 1011 41be 1a10 d63e cd52 7a3d a12b 2f3f
000001e0: 3f5e 8f3e 2ca0 9b3d 8e86 aa3f 7a9e 15be
000001f0: 2c84 e03e 7a8e a63e ed75 063f df39 f2bd
00000200: ab24 963e 812d cb3e 786f dfbe adcb 1f3f
00000210: e542 68be 9213 8abe 1d1e 883d 14f5 973e
00000220: a6c6 e63e 0da4 943e 0ee5 b33d 5130 793e
00000230: bcc4 4f3f e310 23bf 274f 373c ce2b 063f
00000240: 06d9 ca3e 1028 34be 42b0 bfbe 3599 423d
00000250: 1120 36be 1dbb 583e 5f19 12bf c8b2 14be
00000260: d958 9e3e 8191 9c3e 7d3d 85bd a2ab b1bc
00000270: f9b8 49be fc86 b0bd cb6c 903d d2f8 65be
00000280: fc4b bfbc 94d2 fb3e 2235 c6be d3bd 363f
00000290: 9958 223f fc48 47be e81f 1f3d 9bba b53c
000002a0: 0736 ca3d 1fda 3b3f e108 13bf 98ef 5fbe
000002b0: 6988 f23e d37c aa3e 9cc9 36be d31b 7f3d
000002c0: a5bb c2be b748 ac3e 3cf1 703f c809 eebe
000002d0: 26dc e83c a1a5 cb3e 8ba4 be3e 6a9b f2be
000002e0: c7a1 c2be 1dec cdbe 840c debc e9ad b23e
000002f0: 5543 d6be b6e4 b5bd dad6 9e3e ce34 3abd
00000300: 9927 3cbe f7db f63e accb d2be a468 08bd
00000310: 7abb 3e3f 28ec ffbe 0fcc 863e a38c 4c3e
00000320: eb1b ddbe 0eb2 3dbe 4c10 723c a1d6 acbf
00000330: 3f4f e13d e8e2 333f d3ef 22bf b04d 523e
00000340: 1f31 523e d1d7 233d b841 7abe c595 55bd
00000350: 18de 3dbf d6c6 2b3d 8a2e 473f b69d 89be
00000360: 7af7 13be 5824 86bd 64b4 dc3d 7fb6 853e
00000370: 7484 be3e a809 9bbe 8b64 923c 8228 74bf
00000380: c747 e9bd c275 9dbe 87f1 a3be 5fef 84be
00000390: 49aa b23e 2e81 d43e a88a a5be 19e7 aebd
000003a0: 75d1 14c0 cb06 e4bd 08fe fe3d 3176 e0bd
000003b0: 1db1 833e e93f aa3e 7742 513e 2aeb 293d
000003c0: 21a5 6c3d 150c a4bf 4aa7 b0be d54d cc3d
000003d0: a277 a93e c24a 193f 576b 493f 1004 abbd
000003e0: 0c60 0e3f ca92 053f 948b 26be e3ad 053a
000003f0: 9084 133e 3650 47be f4b2 693e 9260 b33f
0.21201588 -0.5766089 -0.14047071 0.5334282 -0.3735768 0.28362438 0.10467388 -0.8247431
0.3450422 0.2028054 -0.56813365 0.28128773 -0.054597724 -0.34626913 0.47432065 -0.30968603
-1.0325357 0.83470976 -0.037841123 -0.39732727 0.19949664 0.045580618 -0.14498864 0.61505127
-0.28701234 -0.62045753 0.43780681 -0.24532773 0.6565951 -0.24622208 0.12981232 0.14248417
0.3080391 0.26965508 0.8728872 0.03347403 -0.8188823 0.204621 -0.45787892 -0.29977214
-0.2770007 -0.2995678 0.12276913 0.86665195 -0.092273325 -0.46732938 0.5093721 -0.07393177
-0.08925775 0.13360913 -0.0643005 0.19467118 0.83634704 0.11259056 -0.18153922 -0.5214904
-0.1295938 0.082630314 0.18329826 -0.3091186 0.030668616 0.823512 0.18616775 -0.32086384
-0.67112064 -0.226614 -0.038792647 0.09638419 -0.5076749 0.2996021 0.8807322 0.33645245
-0.2552262 -0.6328596 0.071145 -0.023797655 0.08036013 -0.41971636 -0.013168626 0.60711485
0.36886767 0.050026417 0.42662653 0.055802062 -0.07003742 -1.1055297 -0.101912655 0.15071388
0.13273591 0.39687067 -0.28862497 0.38853827 0.0935996 0.115247294 -1.1361039 0.08382089
0.045202762 0.10976753 0.5803353 -0.11608565 0.49588498 -0.12059188 -0.0074708182 -0.90340436
0.027397225 -0.12447853 0.16005872 0.46349055 0.36805785 0.035842255 0.35310602 -0.09815491
-0.32600036 0.26914263 -0.3489574 -0.16147634 -0.18854165 0.4180916 0.06111412 0.6842595
0.28001592 0.0759891 1.3322313 -0.14611235 0.4385084 0.32530576 0.5252369 -0.11827444
0.2932485 0.39683154 -0.4363973 0.6242016 -0.22681768 -0.26968056 0.06646369 0.29679167
0.45073432 0.2903141 0.08783923 0.24334837 0.8115957 -0.6369764 0.011188305 0.5241059
0.396187 -0.17593408 -0.37439162 0.04750939 -0.1778567 0.21165128 -0.57069963 -0.14521325
0.3092716 0.3057976 -0.065058686 -0.021688286 -0.19699468 -0.08619496 0.070520006 -0.22458199
-0.023351662 0.49184096 -0.38712412 0.713834 0.6341644 -0.19461435 0.038848788 0.022183707
0.09873586 0.733797 -0.57435423 -0.21868742 0.47369698 0.33298358 -0.17850345 0.062282395
-0.38033786 0.33649227 0.94118094 -0.46491838 0.028425287 0.39774802 0.3723491 -0.47384197
-0.3801405 -0.40219203 -0.027105577 0.34898308 -0.41848245 -0.08881514 0.31023294 -0.045460515
-0.1837448 0.48214695 -0.41171014 -0.033302918 0.74504817 -0.4998486 0.2632756 0.19975524
-0.43185362 -0.18524954 0.014774393 -1.3503 0.11001443 0.70268106 -0.6364719 0.20537448
0.2052655 0.04000074 -0.24439132 -0.052144784 -0.74167013 0.04193767 0.7780539 -0.26878136
-0.14449874 -0.06549901 0.10776594 0.26115796 0.3721043 -0.30280805 0.017870208 -0.9537431
-0.113906436 -0.30753905 -0.32020208 -0.25963876 0.34895542 0.41504806 -0.3233235 -0.08540172
-2.3252842 -0.11134108 0.12450796 -0.10960043 0.25721064 0.33251885 0.2043551 0.041484036
0.057774667 -1.2816187 -0.3450263 0.09975783 0.33099085 0.59879696 0.7867941 -0.08350384
0.55615306 0.5217711 -0.16264182 0.00050994585 0.14406037 -0.19464192 0.22822171 1.4013846

residual_block_1.block.0.bias f4 [16]
00000000: 70c2 4ebf cfff dbbe 2e03 06bf c506 ee3e
00000010: e48e 6dbe a695 d83c 2034 493e 9c0a ed3d
00000020: 0717 7f3e ad63 f93e 87bd aabd de4b d43e
00000030: 67d8 d03e 8062 08be d256 903e 0e90 13be
-0.8076544 -0.42968604 -0.523486 0.4648954 -0.2319904 0.026438545 0.1964879 0.11574289
0.24911128 0.4870886 -0.08336931 0.41464132 0.40790102 -0.13318825 0.2819124 -0.14410421

residual_block_1.block.1.weight f4 [16]
00000000: 6272 8b3f e39d 823f 5559 953f b8b7 843f
00000010: b315 473f c267 463f cb8e 803f abae 893f
00000020: 216a a43f 8990 a63f d0e0 a03f 89aa 693f
00000030: 589c 9d3f 2e5e 563f 625a b63f b41f 3a3f
1.0894282 1.0204433 1.1667887 1.0368567 0.77767485 0.7750207 1.0043577 1.075643
1.2844888 1.3012859 1.2568607 0.9127584 1.2313337 0.83737457 1.4246333 0.72704625

residual_block_1.block.1.bias f4 [16]
00000000: 55c0 443f 7c1f c4bd a665 213e 8d33 983f
00000010: 187c 8ebe 4152 6dbe 6bd0 83be 007d 033f
00000020: cf33 00be b6c2 eb3d a740 663e 3424 d7bd
00000030: efd3 db3e e02a b03d 5824 eabd fbb9 65be
0.76855975 -0.09576318 0.15761432 1.1890732 -0.2782905 -0.23175909 -0.25744948 0.5136261
-0.12519763 0.115117475 0.224856 -0.10504952 0.4293513 0.08601928 -0.11432713 -0.22434227

residual_block_1.block.1.running_mean f4 [16]
00000000: 9a15 40bf 2e65 0abf 68da 03bf 2758 e73e
00000010: 2363 dbbe 2545 c7bc ba97 463e 0a73 283e
00000020: 558c e23e b0c3 723e 471c 193d 33d2 043f
00000030: 4122 c63e b69c 97be 432b cf3e 0656 77be
-0.7503296 -0.5406064 -0.51505136 0.45184442 -0.42849073 -0.024324963 0.19393817 0.16450134
0.4424769 0.23707461 0.037380483 0.5188324 0.3869801 -0.29611748 0.40462694 -0.24153909

residual_block_1.block.1.running_var f4 [16]
00000000: bdb4 183f 9c78 bb3f c729 783f 6cb3 753e
00000010: 96c0 6040 7934 923f b067 4c3f 1cf8 313f
00000020: 7cae 8b40 3110 0141 8d8f b63f 2f71 6a3f
00000030: 1606 0a3f a925 ba3f f718 0e40 2ca5 f33f
0.59650785 1.4646182 0.9693875 0.23994225 3.5117545 1.1422263 0.79845715 0.6951921
4.3650494 8.066453 1.4262558 0.91578954 0.53915536 1.4542743 2.2202737 1.9034781

residual_block_1.block.3.weight f4 [32, 16, 1, 1]
00000000: 338e a8be b246 0d3f 7aef ba3c f90c f8be
00000010: 491b ba3e ad07 0e3f 69c6 9d3e 6b45 5f3e
00000020: bcd0 13bf 0659 4c3f 2e53 dd3d 1695 f03e
00000030: e689 b23e ff96 183e 2bd0 993d fcf7 57be
00000040: 4376 ae3e 10d9 68be f5be 343e 2057 0a3f
00000050: cd0e 86bf 47ad 0cbf 1f82 1cbf 563a 4d3e
00000060: 5323 3cbe 4f00 aebf 63b5 a5bd ad4f 3b3e
00000070: 1936 153d 10ad cdbe 591d 3f3e 9114 fabc
00000080: 4e9b ab3d bf9b 36bf acdb 86bd 920d de3e
00000090: f054 1bbf ffa6 abbe 5258 29bf 9955 fc3e
000000a0: 53bd 883f 397b 0abc 0957 46bd 40ef f3be
000000b0: 0376 9a3d f27a f83d 37b7 87bd 3a4c b6be
000000c0: e629 dbbe 8450 8e3e e38e 253f 1556 513f
000000d0: 9999 a93d 6af4 f63c c212 d13e 9636 0f3e
000000e0: 93fb d4be 8e27 0e3e b57b 0fbf b9a7 4abe
000000f0: 1432 823e e7c8 203f c89e 463d b783 3f3c
00000100: b491 003f 888a 31be 8136 04be 94fc 08bf
00000110: efb1 9abe 0179 943e 136f 12bf 1ca0 63be
00000120: b355 ce3e 82b9 19bf ec77 ddbe e86f 11be
00000130: 50f7 07bf 2b8b 903e ecfd 4d3f c720 b83e
00000140: 59a9 bd3e beb4 0b3f f3fa 09be 749f b63e
00000150: 4a6d 423e 324a 7dbe a221 cf3c 1473 3abf
00000160: 9acd a83e 974e cb3e 1aac dabe e083 973d
00000170: c2eb 5c3f 93d9 093d 6010 5cbc 720a 5a3f
00000180: a0d6 fbbc e145 3e3e 789d bebd bcb1 c53d
00000190: 8896 b23e d66d bc3e b4e5 cb3d ac99 bc3e
000001a0: a27e ed3e 41e1 293f 4068 23bf a924 d53e
000001b0: d3e3 0b3f 2d80 633f 3177 7e3e ee5e b23e
000001c0: 1a88 46bd bc00 f6be 0cf1 9dbe 2139 9fbe
000001d0: e737 983b 8abf d5be cb08 1bbe 2531 f53e
000001e0: efd4 703e fe5c 9f3f 97d6 cebe ed8f 59be
000001f0: 1cb0 bd3e e19f 1d3e 26d3 86bf 4fbc f43e
00000200: b20a ce3d 9777 afbe b95c d5be 862f 4fbe
00000210: e618 debe 35e4 a63c 5116 fdbe a85f 47bf
00000220: 585e 8abf 4953 a8be 1ce7 b8be d794 b93e
00000230: ebf3 12bf 63dc e5be 7372 aa3c e731 b3be
00000240: 8c96 04bd 4e0a c13e 9ce0 bf3d ce61 cf3d
00000250: 91b7 7a3e f5c8 9e3d eae1 6b3e 76b1 d63e
00000260: 6168 0fbf 078b e3be 0cb8 1d3e ef6e b6be
00000270: 722c 903f e4a6 963e e046 bdbe 8225 3e3e
00000280: 5762 2e3f 75a3 1cbe efa3 1c3e aa02 82be
00000290: 92dd 1ebf 0966 913d 594d 043d 7ba9 663e
000002a0: 3ce7 ea3e c807 6ebe 8ea0 e93e 207b 75bf
000002b0: c0a7 aebe 0768 e5be 9842 503e b2cf d6be
000002c0: 95cd d8be f2ef 523e 28c5 04bf 1e54 643f
000002d0: 9c49 b73e 5ec2 b1bd 09b0 373e af6b 2abc
000002e0: a8b6 12bf 7f56 553d f7ed 873d 7ca9 903e
000002f0: b1df 06bf 4e5f 373f f74a 06bf 6277 a8bd
00000300: 8417 173f 838c 7e3f 8223 05bd 05ea 553e
00000310: c5f8 a8be 962f 4f3f cb89 a83e ed85 ee3e
00000320: ce96 0cbe 6c44 123e bbb2 e7be a0f3 8bbe
00000330: 0835 38be c5d1 0a3f a815 713c c6b4 403e
00000340: 6092 303e 69b3 a1be 5dae 9d3e e0e4 70bf
00000350: fad8 05be 4b2e b7bd 91a9 9dbd c83f d9be
00000360: 749d d03e c7ad 8dbe 1aeb fd3e 4a2f 3e3c
00000370: 9794 413f fe54 b2be 0a7e 8f3d b96a ccbe
00000380: d6c9 6f3d 9b65 b1bd c58e a4be 3af1 0a3f
00000390: dfcb 23bd 5c0b 0e3f d8eb 6bbf 05dc d4be
000003a0: 0704 d4be 99a4 f8be d53f f6bc 7faa 2f3f
000003b0: 721e 213e 35e2 a3bd 0a86 6fbe fe84 a8be
000003c0: d0f8 c6be 5786 19bd d52a 393f 50d8 a1bd
000003d0: 7701 48bf 8c85 2abf 93bd 163e 7f03 acbe
000003e0: 0919 003d ab1c d0bb c3cb a3be ca87 023f
000003f0: 12b3 eb3e 4106 3fbf ca42 463e 11bf 95bd
-0.3292099 0.55186 0.02281927 -0.48447397 0.36348942 0.5548046 0.30815437 0.21803825
-0.5774038 0.7982334 0.10806881 0.46988744 0.34870833 0.1490135 0.07510408 -0.21090692
0.34074602 -0.22739053 0.1765097 0.5403919 -1.0473267 -0.549519 -0.6113605 0.20041785
-0.1837285 -1.3593844 -0.080912374 0.18292113 0.036428545 -0.401711 0.18663539 -0.030527385
0.083792314 -0.713314 -0.06584868 0.43369728 -0.6067648 -0.33525845 -0.6615039 0.49284056
1.0682777 -0.00845223 -0.048422847 -0.4764347 0.0754204 0.12132825 -0.06626742 -0.3560503
-0.42805403 0.27795804 0.6467115 0.81771976 0.082812496 0.030145843 0.40834624 0.13985667
-0.41598186 0.13882276 -0.56048137 -0.19790544 0.25428832 0.6280655 0.04849127 0.011689118
0.50222325 -0.17338002 -0.12911417 -0.53510404 -0.30213878 0.2899857 -0.57200736 -0.22229046
0.40299758 -0.6004869 -0.43255556 -0.14202845 -0.53111744 0.28231177 0.8046558 0.35962507
0.37043265 0.54572666 -0.13474636 0.35668528 0.18987003 -0.24735335 0.025284592 -0.72831845
0.32969362 0.39708397 -0.42709428 0.073982 0.8629724 0.03365476 -0.0134316385 0.8517219
-0.03074199 0.18581344 -0.093073785 0.09653041 0.3488047 0.36802548 0.09955922 0.36835992
0.46385676 0.66359335 -0.6383095 0.41629532 0.5464451 0.88867456 0.24850155 0.3483805
-0.04846964 -0.48047435 -0.30847967 -0.31098273 0.004645336 -0.41747695 -0.15140073 0.47889057
0.23518728 1.2450254 -0.40398094 -0.2124631 0.37048423 0.1539302 -1.0533187 0.47799918
0.10060634 -0.34270927 -0.41672304 -0.20232973 -0.4337837 0.02037249 -0.4943109 -0.77880335
-1.0810041 -0.32876042 -0.36113822 0.36246368 -0.5740344 -0.44894704 0.020806527 -0.3499901
-0.032370135 0.37703174 0.09369013 0.10126077 0.24484088 0.07753173 0.23035398 0.41932267
-0.56018645 -0.44442007 0.1540224 -0.3563151 1.1263564 0.29424202 -0.36968136 0.18568996
0.68118805 -0.15296729 0.1529691 -0.25392658 -0.6205684 0.0709954 0.032300327 0.22525589
0.45879543 -0.23245156 0.45630306 -0.95891 -0.34112358 -0.4480593 0.20337903 -0.41955334
-0.42344347 0.20599344 -0.51863337 0.8919085 0.35798347 -0.08679651 0.17938246 -0.01040165
-0.5730996 0.052084442 0.06637185 0.28254306 -0.52685076 0.716298 -0.5245814 -0.082258955
0.59020257 0.99433154 -0.032504566 0.20890053 -0.33002296 0.80931985 0.32917628 0.46586552
-0.13729402 0.14283913 -0.45253548 -0.2733431 -0.1798898 0.5422633 0.014714636 0.1881896
0.17243338 -0.31582192 0.3079709 -0.94099236 -0.13071051 -0.089443766 -0.07698358 -0.42431474
0.40745127 -0.27671644 0.4959343 0.011607954 0.75617355 -0.3483047 0.07006462 -0.39925173
0.058542095 -0.08661958 -0.32140175 0.5427433 -0.03998935 0.55486083 -0.92156744 -0.41574112
-0.41409323 -0.48563078 -0.030059734 0.6861953 0.1573427 -0.0800213 -0.23390976 -0.32913965
-0.38861704 -0.037481632 0.7233098 -0.079025865 -0.78127235 -0.66610026 0.14720754 -0.33596417
0.031273875 -0.0063510737 -0.31991395 0.5098845 0.46035057 -0.7461892 0.19361416 -0.07311834

residual_block_1.block.3.bias f4 [32]
00000000: a037 013f 7ef4 693e fe0e 283e 61a1 2c3e
00000010: c31b 2dbe 086a 2dbe 092c 2cbc 5d5e 9abe
00000020: c3c1 c6be aa29 88bd 2c47 0abe f377 8ebe
00000030: b818 d03d cd27 ad3e 4c49 033e 837d bdbe
00000040: 63b0 fcbd 5b48 b9be db1b 223e f30f d6bd
00000050: 0128 563d 7537 cf3d d039 c73e d8ae d5be
00000060: 81fb 763e 082c 783e 15a5 55bd 2d75 093e
00000070: e133 083e be91 703d 2e5e 4cbe c1ad b63e
0.504755 0.22847173 0.16411969 0.16858436 -0.16905122 -0.16934979 -0.010508546 -0.30150118
-0.38819703 -0.06648572 -0.13503712 -0.2782589 0.10160965 0.33819428 0.1282093 -0.3700982
-0.123383306 -0.36188015 0.15830939 -0.10452261 0.052284244 0.101179995 0.38911295 -0.41734958
0.24119379 0.24235547 -0.052159388 0.13423605 0.1330104 0.05873274 -0.19957802 0.3567944

residual_block_1.block.4.weight f4 [32]
00000000: 4686 203f c65d 4e3f 1f24 863f 492d b33f
00000010: 50b8 a73f 6084 3f3f 38a9 8d3f 301a bd3f
00000020: 740b 343f c316 0c3f 6078 453f d311 a53f
00000030: 5b4b ed3e 5075 d33f 9300 3f3f cc21 c63e
00000040: f410 833f 929e 2d3f 0c82 3d3f b63c 5a3f
00000050: 0ef1 a13e 87e6 ce3e ab2a 8e3f bdcf a73f
00000060: f552 0140 8451 223f 0aaa b13f 696f 833f
00000070: fd94 d73f f52c 643f 64fc fb3e c26e 723f
0.62704885 0.80611837 1.0479773 1.3998195 1.3103123 0.74811363 1.1067266 1.4773617
0.70329976 0.5472223 0.771368 1.2896065 0.46346554 1.6520176 0.7461025 0.3869766
1.0239549 0.67820084 0.7402656 0.8524889 0.31629223 0.40410253 1.1106771 1.3110272
2.0206883 0.6340563 1.3880017 1.0268375 1.6842343 0.891311 0.49215996 0.94700253

residual_block_1.block.4.bias f4 [32]
00000000: 9b02 183d 1dac 2d3e 5167 833e 4f53 af3d
00000010: 8e0c a6bd 1d04 1fbe 5e89 c9be bda3 f0bd
00000020: a785 383e 1362 5cbd 3aca 46bd 0760 cdbd
00000030: 0b36 21be c71d 183d 3481 0ebe 67f8 81bd
00000040: 3db5 5ebe 091b c5bd a812 83be 73a1 4abe
00000050: 2e30 3abe f62b d23d 4173 b23d a363 9d3d
00000060: 1a46 1cbe d20d 6abe 350c e8bc 564e 70be
00000070: 229a e9bd 8c95 c53d 64e3 4fbe 9dd1 6d3d
0.03711186 0.16960187 0.25664762 0.08560812 -0.08107863 -0.15528913 -0.39362615 -0.117499806
0.18019734 -0.05380447 -0.048532702 -0.100280814 -0.15743272 0.037137773 -0.13916475 -0.06346207
-0.21748824 -0.09624297 -0.2560017 -0.1978815 -0.18182442 0.10262291 0.08713389 0.0768502
-0.15261117 -0.22856835 -0.028326133 -0.23467383 -0.114063516 0.096476644 -0.20301586 0.05806123

residual_block_1.block.4.running_mean f4 [32]
00000000: 3f06 673f a1c1 c2bd 1577 3c3f a30c ae3f
00000010: 6695 8dbf 0d99 903f caf4 e43f b8f0 f1be
00000020: 6bda 46c0 7a43 593f 49b6 58bd 66cf e1bd
00000030: d583 c73f 3c8b bdbe 7e0a 41be 689f 6fbf
00000040: cbd9 0240 4cfd abbf 13df edbf c115 2ec0
00000050: 9395 fcbe fb34 1cc0 a335 69bf 74d8 1fc0
00000060: 301c 6c3f c4fa 2440 d329 b5bf d043 31be
00000070: 6eba 74bf 15b7 a63f e97a 81bf bbfd c43f
0.90243906 -0.09509588 0.73619205 1.3597606 -1.1061218 1.1296707 1.7887204 -0.47253966
-3.1070812 0.84868586 -0.052908216 -0.11025886 1.5587107 -0.3702029 -0.18851659 -0.9360261
2.044543 -1.3436675 -1.8583702 -2.7200778 -0.49332866 -2.4407337 -0.9109747 -2.4975863
0.9223051 2.5778055 -1.4153389 -0.17311025 -0.9559697 1.3024622 -1.0115634 1.5389932

residual_block_1.block.4.running_var f4 [32]
00000000: 285d 4640 e57f cf40 19f3 3a40 563b 3140
00000010: bd36 ea3f e5ac 3a40 04fd 1340 98e8 4040
00000020: b09e fb3f ef05 d83f aeaa 4940 dbc9 0a40
00000030: 85cc 9c3f 8b13 f23f 7dce ab3f 3fcb bf3f
00000040: 53fd 1140 235f 9040 d2be db3f ddb1 6b40
00000050: 5e0e 2840 d685 9d40 e6e4 9b40 0b12 1e40
00000060: 20a7 3040 c4fa d43f 0326 2640 df0c 3140
00000070: 6d12 1940 bfa1 3c40 3c2e 0340 deae f13f
3.0994358 6.484362 2.9210875 2.7692466 1.8297955 2.9168026 2.3123178 3.0141964
1.9657803 1.6876811 3.1510425 2.1685703 1.2249914 1.8912214 1.342239 1.4983901
2.2810867 4.5116134 1.7167609 3.682731 2.625877 4.9225874 4.8716917 2.4698513
2.7602005 1.6639028 2.59607 2.7664106 2.3917496 2.9473722 2.049697 1.888149

residual_block_1.shortcut.0.weight f4 [32, 3, 1, 1]
00000000: 5b8a 3f3f f8fa 1ebf 436d 20be 6db5 543e
00000010: b515 11bf 7c46 1d3f 455c 293f abf5 a5be
00000020: 2802 9cbd ee49 05bf aa75 1ebf f5f0 b4be
00000030: 77dc 2f3f 8940 633f 2c61 903d 226a 13bc
00000040: 13e5 873f a95f 98be 07f2 efbc b17d c1bf
00000050: f465 e9be ba0f 81be f1c0 70bf 971a 16bf
00000060: b597 b43e 5331 8e3f fe23 5fbe 8c8a 653e
00000070: c77e c23e 7cf4 913f 9bf3 75bd c87f 463f
00000080: 8727 15bf d877 35bf 8114 933e bbc6 12bf
00000090: 3294 bc3f f166 cfbd 1da0 51be 4b24 2d3f
000000a0: 6ebf 503f 9b9d f83e a1a4 293f 4d9b ebbe
000000b0: b639 033f 695f e33e e4a4 7abe 6009 45bf
000000c0: 28a6 143f 119c 42bf d572 eb3e 037e 1d3e
000000d0: a7fd bdbf 75aa acbe 9e1a b8be fe09 613f
000000e0: fe49 8a3d b88c 853f 1325 14bc 329e 5c3e
000000f0: 4708 ac3e ef5c 05bf 7490 313f 45ed e43e
00000100: 3ed1 a3bd 0995 47bf 5496 093f 15fa 39bf
00000110: 070f b33e 073b 9dbf b886 be3e f273 ccbc
00000120: e1ee 8fbd 4a43 8ebf fa1e b0be f815 d63c
00000130: c39e 3b3d 9166 0bc0 3116 c13e 0eac e9be
00000140: fd3b 4f3f 3e4d cd3e 6da5 11bf 3c22 efbe
00000150: 56d0 a43e 1baa 833f 4038 f43e 0514 e7be
00000160: b397 093e 7e49 4f3f 7ec5 35be cd17 24bf
00000170: 4f74 d33e 9e7a 6bbe 2c57 b63e b719 743f
0.7482049 -0.621017 -0.1566668 0.20772333 -0.5667375 0.61435676 0.6615642 -0.32413992
-0.07617599 -0.5206593 -0.6189829 -0.35340086 0.6869578 0.8877035 0.07049784 -0.008997472
1.0616783 -0.29760483 -0.029290212 -1.5116483 -0.45585597 -0.2520731 -0.94044405 -0.5863432
0.35271993 1.1108803 -0.21791074 0.22416133 0.37987348 1.1402736 -0.060046773 0.7753873
-0.5826344 -0.7088599 0.2872658 -0.5733449 1.4732726 -0.101270564 -0.20471235 0.67633504
0.815421 0.48557743 0.6626683 -0.46016923 0.51259935 0.4440873 -0.24476963 -0.7696743
0.58066034 -0.7601939 0.45986047 0.15380101 -1.4843034 -0.33723798 -0.35957807 0.8790587
0.06752394 1.0433569 -0.009042042 0.21544722 0.33600065 -0.5209493 0.6936104 0.44712272
-0.07998894 -0.77961785 0.5374501 -0.7264722 0.34972402 -1.2283639 0.37212157 -0.02495763
-0.070279844 -1.1114285 -0.34398633 0.026133522 0.045805704 -2.1781352 0.37712243 -0.4563908
0.8095091 0.40097994 -0.56893045 -0.46705806 0.32190198 1.0286287 0.47699165 -0.4513246
0.13436775 0.80971515 -0.17751119 -0.6409882 0.41299674 -0.22995993 0.35613382 0.9535174

residual_block_1.shortcut.0.bias f4 [32]
00000000: 3765 a83e beb9 213f 9f1a 7e3e ed38 b8be
00000010: ebed ea3c a862 ab3e b129 853e 8381 ccbe
00000020: b098 39bd bb58 22bf c73d d43d 0bd4 cfbe
00000030: 38f5 b4bd 6e0b 993e 9750 86be 4006 0ebf
00000040: d728 d2bd f94e 01bf 1ee8 da3e 535c 143f
00000050: 2ac4 95be 44f8 28be e8bd 18be babd 36bf
00000060: b095 593f 521a 103f e014 1dbe 18ee 09bf
00000070: 8e91 e23e 9644 48be c8da 253f 932b 2f3f
0.3288972 0.63174045 0.24814843 -0.3598093 0.028677901 0.33473706 0.2600837 -0.3994256
-0.04531163 -0.6341664 0.103633456 -0.40591463 -0.08835834 0.29891533 -0.2623336 -0.55478287
-0.10261696 -0.5051113 0.42755216 0.57953376 -0.29251224 -0.16500956 -0.14916193 -0.7138325
0.8499403 0.5629016 -0.15339994 -0.5387893 0.44251674 -0.19557413 0.6478696 0.68425864

residual_block_1.shortcut.1.weight f4 [32]
00000000: 960c a33f 33bf 963f eedd 953f f4ee a03f
00000010: 5748 813f d090 753f 328b c23f f2c4 a33f
00000020: 0ed6 9b3f 8fa3 523f e991 973f 89ab 913f
00000030: 85a3 883f 9e1b af3f 5dbf a13f a6ef 6b3f
00000040: fca2 a53f 78db 653f d841 8b3f 1d93 793f
00000050: 9c6c 543f 74c4 6c3f 0f92 883f c308 953f
00000060: 02c1 923f 2a3a 993f dd34 693f 2819 a63f
00000070: 5fb4 5b3f 0693 a23f 4116 913f c041 9e3f
1.2738216 1.1777099 1.1708353 1.2572923 1.0100201 0.9592409 1.5198729 1.2794478
1.2174699 0.8228082 1.1841403 1.1380473 1.0674902 1.3680303 1.2636524 0.9216255
1.2940364 0.8978801 1.0879469 0.974901 0.82978225 0.92487264 1.0669574 1.1643299
1.1465151 1.1970875 0.9109629 1.2976427 0.858221 1.2701118 1.1334916 1.2363815

residual_block_1.shortcut.1.bias f4 [32]
00000000: 9b02 183d 1dac 2d3e 5167 833e 4f53 af3d
00000010: 8e0c a6bd 1d04 1fbe 5e89 c9be bda3 f0bd
00000020: a785 383e 1362 5cbd 3aca 46bd 0760 cdbd
00000030: 0b36 21be c71d 183d 3481 0ebe 67f8 81bd
00000040: 3db5 5ebe 091b c5bd a812 83be 73a1 4abe
00000050: 2e30 3abe f62b d23d 4173 b23d a363 9d3d
00000060: 1a46 1cbe d20d 6abe 350c e8bc 564e 70be
00000070: 229a e9bd 8c95 c53d 64e3 4fbe 9dd1 6d3d
0.03711186 0.16960187 0.25664762 0.08560812 -0.08107863 -0.15528913 -0.39362615 -0.117499806
0.18019734 -0.05380447 -0.048532702 -0.100280814 -0.15743272 0.037137773 -0.13916475 -0.06346207
-0.21748824 -0.09624297 -0.2560017 -0.1978815 -0.18182442 0.10262291 0.08713389 0.0768502
-0.15261117 -0.22856835 -0.028326133 -0.23467383 -0.114063516 0.096476644 -0.20301586 0.05806123

residual_block_1.shortcut.1.running_mean f4 [32]
00000000: 5845 b33e 8f8c 133f c96a 863e 951d 99be
00000010: a95a 7dbc 1378 a33e 95cb b73e 3c99 9abe
00000020: 1637 73bd f85d 43bf f1f1 153e 0802 b4be
00000030: abf2 b4bd cded 543e 27cc 9ebe b28d f8be
00000040: fe3b 17be a049 d8be bc57 ca3e 3815 0d3f
00000050: fc2b afbe e622 b9bd 4848 2ebe 5b37 35bf
00000060: 05f7 6b3f dcc9 453f a9a1 72be f2e6 fbbe
00000070: 0465 b83e 294e 92be a02f 1f3f 4afd 133f
0.35013843 0.5763635 0.26253346 -0.29905382 -0.01546351 0.31927547 0.35897508 -0.30195034
-0.059378706 -0.7631526 0.14643075 -0.351578 -0.08835348 0.20793839 -0.3101513 -0.48545605
-0.14768979 -0.4224367 0.3952006 0.551105 -0.34213245 -0.090398595 -0.1701976 -0.7078759
0.92173797 0.7726114 -0.23694481 -0.49199635 0.3601457 -0.28575256 0.62182045 0.57808363

residual_block_1.shortcut.1.running_var f4 [32]
00000000: d458 f03c dc82 0a3d 1eca f33c d451 023f
00000010: 1820 1f3f 96ab 1c3e b998 713f 57e2 3c3f
00000020: 9992 b73e 1262 3e3f 6b0b af3c 431c 6e3e
00000030: d7e0 bf3e 4ad8 633f 80c1 003e ade3 fd3d
00000040: c64f 063d ab1d 2e3f e5dd c03d 27e3 b93e
00000050: 74f5 a93d a806 c43d 7fd5 9e3c 7732 573e
00000060: 7ed7 0b3f d10e 9f3f 65a3 063e 8d59 f83d
00000070: c2e6 453f 8c69 e43d a120 4f3d ec22 aa3e
0.029339232 0.033816203 0.029759463 0.5090611 0.62158346 0.1529983 0.9437366 0.7378287
0.35854033 0.74368393 0.02136775 0.23252968 0.37476227 0.89001906 0.12573814 0.12396941
0.03279092 0.6801402 0.09417323 0.36306116 0.082987696 0.09571582 0.019388912 0.21015345
0.5462569 1.2426397 0.13148268 0.121264555 0.77305233 0.11152944 0.050568227 0.33229768

residual_block_2.block.0.weight f4 [64, 32, 3, 3]
00000000: 2537 093d 4e49 71bd a4f0 b03e 6a32 29bd
00000010: 302b 143c 9e90 afbe d38d 493e 7774 4abe
00000020: 0bd7 e73c 9fac 103f 9154 e43e 532b f33e
00000030: 3f54 233e 6fd4 c9be 9d8d 48bf 23ad 80bf
00000040: d2d3 43bf c6fe 09bf 16cf f53d 25eb 58bf
00000050: 16ce c93e f8d7 063e 648a 20be 8880 03bf
00000060: 532f 0cbc f169 863e f0bb 4fbe 9c6d 213f
00000070: a8b4 4a3f 5766 14bf 09b7 24bf 175e 553e
00000080: 75ef 773f 9a25 1ebf da32 733e 2ed7 333f
00000090: dd24 c83e b687 27bf 75a2 273f 501b c43e
000000a0: 7e20 37bf a48c 2b3e 0f1c b9be d809 af3e
000000b0: 651c 323e c0c3 9ebe 4f38 0abf 9a65 133e
000000c0: 73f5 ab3d a97c fbbe 08b7 a53d 20b0 10bf
000000d0: 5bed 4b3e ceb6 2c3f 9e55 fa3b c1a8 9d3e
000000e0: 5a12 d9bd a36c a9be 5ca8 92be bd11 a23d
000000f0: 16ad e5be e956 3f3d 72f5 4e3e 86e0 fb3e
00000100: d49a 7c3e b72c 573d 1f48 23bf 2314 efbd
00000110: 76d9 b1be be85 38be 2a56 633e 54fe 9b3e
00000120: 5b43 92bd 353b abbe 7392 4dbd 528e 19bd
00000130: aa3b 80be 44e8 bcbe a44c 1ebf fbc5 86bd
00000140: 9cc9 013f f517 10bf ad71 a7be 209b b63e
00000150: 0afe 6c3e 07ad 04be e79d 963e 194b 68bf
00000160: 2b20 923d 574c 763e 6de2 44be f445 74be
00000170: 24b5 c8bc 1f4e b03d 8b6e a53e 09c9 7abb
00000180: ea68 5dbd 1c39 b8bd 3dbb 453f 3bce 283e
00000190: e31c 993e c917 89be 5a1a 13bf 132a 5abd
000001a0: 9733 cd3c f9d5 03bf eee1 053f df8e 9e3e
000001b0: 7003 37bf 6e53 10bf f811 323f 0691 1b3e
000001c0: d933 b0bd 4e14 943e f7ea 11bc 9427 acbe
000001d0: 6d96 493e 1352 89be 2bfe 673f 159b 933e
000001e0: d16f bfbe b7e6 ba3d 0eb9 023f cfec bcbe
000001f0: 40db 5abf 932c 3c3f 968d debd 7417 803c
00000200: f018 323f a077 5bbe 05b2 6dbe 482a 18bb
00000210: 60e1 5abf ca29 33be 9f32 003f 4ead 443d
00000220: 01e4 cb3d 9886 0abf 8fac 65be 9c1d e73d
00000230: 566a 843e 1de8 a9bd f219 67be 442d c23e
00000240: e9c4 53be a21b ac3d 6a60 703f 9c44 093f
00000250: 1df4 c1bd 7ec3 a63e 97b0 e8be 411d 06bf
00000260: 39eb c5bd 3a35 74be 7b1e 2e3d 27cb f13d
00000270: de2a 0a3d ce29 d9be 619f 043e 8b3e 9abd
00000280: d1c5 eb3e 1f5f bf3c bab4 08bd 918e 0fbe
00000290: 84eb e63e a270 b93d 5be1 e2bd ed0b 9dbe
000002a0: fb46 89be aa2c d83d 2ed0 e93e 3971 72bf
000002b0: 7747 63be e50d c03e a297 97bd 8e3f 73bd
000002c0: db83 32be a540 593e c9e8 dfbe d8f2 ffbc
000002d0: e7a7 f4be 2559 1abf a22b 223f 6285 873e
000002e0: 6402 58be b893 5d3c 6271 73bc d802 103d
000002f0: 7dd5 f63d 63f7 9ebe a7f7 88be ae0b 66be
00000300: 57c3 b5bd 4ee5 443e fbaf 103f 98d2 6d3d
00000310: c484 b13e 6980 f93e 4939 5b3d 4fe9 e7be
00000320: e899 813f 9bab f73c a8b4 acbe 2b31 b2be
00000330: 5026 debd da7c 2cbe 3306 1cbf 7598 82be
00000340: 4240 fd3d 70cd 5b3f 5703 843d 2af9 83be
00000350: 22f1 7ebd aaf4 0abe 0b88 7f3f bb37 33bf
00000360: a7cd 75be 7b6c 2e3f 8f70 f6bd e8fd 393e
00000370: 8184 d9be 5a6c 2b3d 7be4 8bbf f67a b2bc
00000380: 8c0e 6abd 0479 f6bc 93ec 11be f4a0 86be
00000390: 4928 2abf b01a 643e d69b 833f c853 953d
000003a0: 764f 55be 1d47 a93e 5ff0 e53d 6780 053e
000003b0: 258f 643f a15d 36bf abad 0a3f aee8 f9be
000003c0: 0bca 6b3e d711 37bf eff8 adbc 9d44 7fbe
000003d0: c85a 9bbd e2cf 1b3e dad0 27bd 5250 a9be
000003e0: 750b 0ebe 8f99 b33c a767 503e 8a1a f4bd
000003f0: 0972 893d 0b25 953e f3a5 b3bd f93a 18be
0.033499856 -0.0589078 0.34558594 -0.041307844 0.0090435 -0.34290022 0.19683008 -0.1977099
0.028300783 0.565134 0.4459577 0.4749399 0.15950106 -0.39419886 -0.78341085 -1.0052837
-0.7649509 -0.5390438 0.12002389 -0.847338 0.39415044 0.13168323 -0.15677792 -0.51368
-0.008556205 0.26252702 -0.20286536 0.63057876 0.7918191 -0.5796866 -0.6434179 0.20836674
0.9684976 -0.61776125 0.23749867 0.70250213 0.39090624 -0.65441453 0.65482265 0.38302088
-0.71533954 0.16752869 -0.3615422 0.34187198 0.17393644 -0.3100872 -0.5399217 0.14394227
0.08396425 -0.49118546 0.08091551 -0.56518745 0.19914763 0.6746644 0.007639601 0.30792812
-0.105992034 -0.33090696 -0.28644073 0.079135396 -0.44858617 0.046713743 0.20210817 0.49194735
0.24668437 0.052532878 -0.63781923 -0.11673763 -0.34736222 -0.18019769 0.22200838 0.30467474
-0.07141753 -0.3344361 -0.050188493 -0.037489243 -0.2504552 -0.36895955 -0.61835694 -0.065807305
0.50698256 -0.56286556 -0.32703915 0.35665226 0.23143783 -0.1295663 0.29417345 -0.9073959
0.07135042 0.24052559 -0.19227 -0.2385481 -0.024500437 0.086086504 0.323109 -0.00382668
-0.054055132 -0.08995268 0.7723883 0.1648492 0.2990485 -0.2677596 -0.57462084 -0.05326278
0.025049014 -0.5149837 0.52297866 0.30968377 -0.7148962 -0.56377304 0.6955867 0.15192041
-0.08603639 0.2892174 -0.008906118 -0.33623946 0.19686289 -0.2682043 0.90622205 0.28829256
-0.37389997 0.091260366 0.5106362 -0.3689942 -0.854908 0.73505515 -0.10866849 0.015636183
0.695693 -0.21432352 -0.2321244 -0.002321856 -0.85500145 -0.1749641 0.5007724 0.04801684
0.09955598 -0.54111624 -0.22429107 0.112849444 0.25862378 -0.08296225 -0.22568491 0.3792516
-0.20680584 0.08403708 0.93897116 0.53620315 -0.09470389 0.32571024 -0.45447227 -0.5238839
-0.09664006 -0.2384843 0.042509537 0.11806326 0.033732288 -0.42414707 0.12951423 -0.075314604
0.4604936 0.023360787 -0.03337548 -0.14019229 0.4510156 0.09054686 -0.110781394 -0.3067316
-0.26811966 0.10555394 0.4566664 -0.94704014 -0.2219523 0.375106 -0.074019685 -0.059386782
-0.17433111 0.21216066 -0.43732288 -0.031243727 -0.4778435 -0.60292274 0.6334783 0.2646895
-0.21094662 0.013523988 -0.014858576 0.035158962 0.120524384 -0.31048116 -0.26751444 -0.22465393
-0.08875149 0.19228098 0.56518525 0.058062166 0.34671605 0.48730782 0.05352143 -0.45295188
1.0125093 0.030233195 -0.3373158 -0.34803137 -0.10847151 -0.16844502 -0.6094696 -0.2550694
0.12365772 0.8586035 0.064459495 -0.25776035 -0.06224168 -0.13569894 0.9981696 -0.7000691
-0.24004231 0.6813428 -0.120331876 0.18163264 -0.42483905 0.04185138 -1.0929102 -0.021787148
-0.05714278 -0.030087002 -0.14250402 -0.26294672 -0.6646772 0.22275805 1.0281932 0.07291371
-0.20831093 0.33062068 0.11227488 0.13037263 0.8928092 -0.71236616 0.54171246 -0.48810333
0.23026292 -0.71511596 -0.021236865 -0.24928518 -0.075856745 0.1521602 -0.04097066 -0.33069092
-0.13871558 0.021923808 0.2035204 -0.119191244 0.067112036 0.29129824 -0.08771887 -0.14866246

residual_block_2.block.0.bias f4 [64]
00000000: 658d 1c3d 3ebb 273d 3824 0abd bf5d 4fbc
00000010: dd8a c8bb 13c1 a83c b1db 51bd 67bf c43d
00000020: 979d d3bc b70d 65bd de10 a8bc 7bb4 6fbd
00000030: d7ae ca3d a3b3 8cbc c6bf f3bb 500f a3bb
00000040: 2693 183d e272 f23c c820 033d f0f5 343d
00000050: df84 a53c 7572 2ebd 6707 40bb 99df 623d
00000060: 1f91 e1bb 94ab 04bd b184 7c3d 3183 123d
00000070: e144 8cbd b6f7 9ebd bdb2 063d 1e2e 65bd
00000080: 50d7 98bd bd15 ce3c 358b 6f3d e3dd da39
00000090: 3fa9 ed3b 1127 923d 6984 6c3d 25ee 243c
000000a0: 388f dd3c 0bd3 cebd 9252 7abd f7d7 5ebd
000000b0: 74fa adbc d3de bc3c a1b8 62bd 9451 473c
000000c0: efb5 633b b69c 77bd 83b2 143d 8b19 8c3d
000000d0: e7c5 2fbd 50f4 10bd f74b 93bd 529a c2bc
000000e0: 0ffb 293d 04a3 5cbb 312f 543d 6074 223d
000000f0: ef20 c9bc cb88 9fbd 0455 703c 241c db3a
0.03822078 0.040950052 -0.033725947 -0.012656628 -0.0061200694 0.020599877 -0.051234905 0.096068196
-0.02583198 -0.055921283 -0.020515855 -0.05852173 0.09896629 -0.017175501 -0.0074386327 -0.0049761906
0.037249707 0.029595796 0.032013685 0.044179857 0.02020496 -0.042589623 -0.0029301287 0.05538902
-0.006883755 -0.032390192 0.061649982 0.035769645 -0.06849075 -0.07762091 0.0328853 -0.055952184
-0.074629426 0.02515685 0.058482368 0.0004174552 0.0072528417 0.071363576 0.057743464 0.010066544
0.027045831 -0.10098847 -0.0611139 -0.05440518 -0.02123759 0.02305547 -0.055351857 0.012165446
0.0034745892 -0.060452186 0.036303055 0.068408094 -0.042913344 -0.035389245 -0.071922235 -0.023755226
0.041499194 -0.00336665 0.051802818 0.039661765 -0.024551837 -0.07789763 0.014668707 0.0016716761

residual_block_2.block.1.weight f4 [64]
00000000: a4f9 6c3f 0e67 6c3f 1395 ac3f ad62 553f
00000010: 0068 493f 629e 903f f101 9b3f 5d30 b73f
00000020: 23f9 ad3f bca4 b83f 5b56 f83f b682 663f
00000030: 83fc 823f 1af5 703f 2a15 be3f 5f20 9d3f
00000040: 6b72 973f a8d5 893f 576b 573f a2e2 153f
00000050: 34d5 a63f 9041 903f 346c b83f aecf 6e3f
00000060: 130d 8c3f c639 3a3f 145a 703f 2c92 a33f
00000070: 174c 853f d87a 7a3f 09bd 933f 965d b53f
00000080: b76b a73f 9d82 843f ebc4 7f3f 79d9 873f
00000090: 01c2 233f 65c9 a93f 25b8 c43f 2ffc 323f
000000a0: a5ef 673f 3cba a73f ce6a 9d3f 32ee 303f
000000b0: 7a7e 8c3f da3f 8c3f ee17 593f 2849 823f
000000c0: fa22 483f 30a8 653f c7a5 7b3f 7c25 a43f
000000d0: 2b4b 873f 2782 a73f 7919 843f 1c82 b83f
000000e0: 51e0 7d3f d66a 8b3f b082 8c3f cdf7 4d3f
000000f0: 6177 033f b93a 8c3f 5927 6d3f 17d2 743f
0.9256842 0.9234475 1.3482994 0.8335369 0.78674316 1.1298335 1.2109967 1.4311634
1.3591655 1.4425273 1.9401354 0.900432 1.023331 0.94123995 1.4850209 1.2275504
1.1831793 1.0768328 0.8414816 0.5854894 1.3033814 1.1270008 1.4408021 0.93285644
1.094149 0.72744405 0.9388745 1.2778983 1.0413846 0.97843695 1.1542064 1.4169185
1.3079747 1.035236 0.9990985 1.0613242 0.639679 1.3264586 1.5368696 0.6991605
0.90600044 1.3103709 1.2298219 0.6911346 1.0976098 1.0956986 0.8480214 1.0178576
0.7817837 0.8970976 0.9829983 1.2823939 1.0569814 1.3086594 1.0320274 1.4414706
0.99170405 1.0891979 1.0977383 0.8045624 0.5135403 1.0955421 0.92638165 0.9563307

residual_block_2.block.1.bias f4 [64]
00000000: e237 17bf 68ca 1cbe 5fab 393e 7476 42bc
00000010: 0cac b1be ace6 c5be c028 94be 62fc 04bd
00000020: 228f 513b 67b7 2bbe 8d6e e43c b2e3 aabe
00000030: 5948 5e3d 8385 c2bd 9bb2 68bf 39d1 a2be
00000040: bf26 13be bb17 28be 793b f9bd fe3e 21be
00000050: 922f 9b3c be9a a6be c748 48be 086f 63be
00000060: 39fd c2be 170c 0e3e 44a3 acbe b469 d1be
00000070: b130 93be 523d 5cbe 8a7c 01bb 0d76 a3be
00000080: f0c0 e1bd 4046 8bbe d8de e93b 174a d5be
00000090: 4942 80bd 0fa0 19be e7b8 35be 3ed7 a43d
000000a0: 0ab4 823e b4be 8dbd 3cdb c9bd 5201 b5be
000000b0: 1e35 66bd 0023 dfbe 0057 30bf 9a0e 92be
000000c0: 90da e2be 15d2 7a3e 2d85 adbe 47ac 73bd
000000d0: b479 9bbe 02b3 07bf c09f d2be 4b94 36be
000000e0: f8f6 9ebe 8e45 f2be 203c e83c c2e0 2bbd
000000f0: d5be 11be eeb3 dcbe 006c 47bf 2a7f 1abe
-0.59069645 -0.15311587 0.18131779 -0.011869062 -0.34701574 -0.3865255 -0.2893734 -0.032467254
0.0031976183 -0.16769181 0.027884746 -0.33376843 0.054268215 -0.094981216 -0.9089753 -0.3180025
-0.14370249 -0.16415302 -0.12169547 -0.15746686 0.018943582 -0.32539934 -0.19559012 -0.22210324
-0.3808382 0.138718 -0.33718312 -0.40900958 -0.28748086 -0.21507767 -0.001975807 -0.31926003
-0.11023128 -0.27202034 0.0071371607 -0.4165809 -0.06262643 -0.15002464 -0.17746316 0.08048867
0.25527984 -0.06921139 -0.09856269 -0.3535257 -0.056203 -0.4358139 -0.6888275 -0.28526765
-0.44307375 0.24494202 -0.33890668 -0.05949047 -0.3036629 -0.5300752 -0.41137505 -0.17830007
-0.31047797 -0.4731869 0.028348982 -0.041962393 -0.14232953 -0.43106025 -0.7789917 -0.15087572

residual_block_2.block.1.running_mean f4 [64]
00000000: a7dc 81c0 5ac8 ae3f c507 97c0 1940 ecc0
00000010: b43b 97c0 6f94 d3c0 f515 36c1 b990 5cc0
00000020: c27f efbf f162 0dc1 8890 fbc0 0caf 61c0
00000030: 2e9c 23c1 c579 13c1 885c 963f 739a b8c0
00000040: db0f e3c0 b0e5 dfbf 6a29 a43e 9166 8dc0
00000050: 94f2 18c0 ed99 72bf d586 97bf 0835 e4c0
00000060: bd96 f9c0 255b 18c0 bf29 92c0 ab89 0d40
00000070: 5ba3 4bc1 c15c 87bf 8be0 adc0 58b1 58bf
00000080: 4e9d 59c0 4b7d 6cbd cb87 c9c0 7d6b 87c0
00000090: 222b c4bf cc4c 0dc1 3ad5 cec0 aa5d 06c0
000000a0: f014 71c0 6847 47c1 73b0 63c1 07e7 9540
000000b0: 035b 07c1 eff5 15c1 d989 8740 bda9 9340
000000c0: 870d 8040 1ba0 69c0 8a8e a7c0 cf36 2a40
000000d0: 4e4c e8bf 23b9 02c1 f770 b6c0 919c 08c1
000000e0: ad27 c440 2ff7 5ebe c4c6 40bf 0852 5040
000000f0: e646 c3bf d953 0441 4fd2 9540 670a dfc0
-4.058185 1.3654892 -4.7196984 -7.3828244 -4.726038 -6.6118693 -11.380361 -3.4463332
-1.8710864 -8.836656 -7.861393 -3.526309 -10.22563 -9.217229 1.1746988 -5.7688537
-7.0956855 -1.749197 0.32062846 -4.4187703 -2.3898058 -0.9476612 -1.1838022 -7.1314735
-7.7996507 -2.380563 -4.567596 2.2115276 -12.727382 -1.0575181 -5.43366 -0.84645605
-3.400226 -0.057736676 -6.2978263 -4.231871 -1.5325663 -8.831249 -6.4635286 -2.0994668
-3.766903 -12.454933 -14.230578 4.6844516 -8.45972 -9.372542 4.235577 4.61447
4.0016513 -3.650397 -5.23615 2.6595953 -1.8148286 -8.170199 -5.7012897 -8.538224
6.129843 -0.2177398 -0.7530329 3.2550068 -1.5256011 8.270471 4.6819224 -6.97002

residual_block_2.block.1.running_var f4 [64]
00000000: f8d3 6042 2e09 b142 9eea dc42 2303 df42
00000010: 1470 a542 9729 b442 42f7 8342 c6ed 4242
00000020: 341b 9c42 5f11 c242 38e7 0b43 a9eb 8842
00000030: 45ec f442 2950 fb42 d4ea d742 c9f0 d742
00000040: 794f 8642 10f1 9a42 1042 3d42 2832 a642
00000050: 947b cd42 195d 4f42 0ba5 7842 7621 a142
00000060: c2ca a542 808b 9a42 35d0 0743 2113 7a42
00000070: 0195 2a43 c872 2642 e25c 2d42 5bf9 8442
00000080: e1f1 4142 3934 cd42 2bed b442 91c4 9c42
00000090: c017 4d42 7127 9d42 6f4b f442 709e 5342
000000a0: 7d90 0243 726f b042 a48a 3243 7d7f a142
000000b0: 312c b242 fbf7 9042 80a0 9842 26d9 8842
000000c0: 2211 0b43 a128 9c42 2e94 b342 f65e 2242
000000d0: 7b31 e142 051b 8b42 df2e 8a42 3b16 b342
000000e0: e5e5 0043 bb73 9b42 a8c0 8f42 695c 9d42
000000f0: 7ee2 a842 fde2 6442 b230 7742 a3a6 f042
56.207 88.51793 110.45824 111.50613 82.7189 90.08123 65.982925 48.7322
78.05313 97.03393 139.9032 68.46027 122.461464 125.65656 107.95865 107.97028
67.15522 77.470825 47.314514 83.09796 102.74136 51.840916 62.161175 80.56535
82.89601 77.27246 135.81331 62.51868 170.58205 41.61209 43.340706 66.48702
48.48621 102.602 90.46322 78.38392 51.273193 78.577034 122.14733 52.904724
130.5644 88.21767 178.54156 80.749 89.08631 72.48434 76.31348 68.42412
139.06693 78.07935 89.78941 40.592735 112.59664 69.55277 69.091545 89.54342
128.89803 77.726036 71.87628 78.68049 84.44237 57.22167 61.797554 120.32546

residual_block_2.block.3.weight f4 [128, 64, 1, 1]
00000000: 0eaf 69be 03df f5bd 84ff 07bf 2f9c c1bd
00000010: 3a0d 6cbd 7f5e 5d3e 4941 87bd f148 2d3c
00000020: b588 68be 1ae6 e7be 0039 e3be 9270 27bf
00000030: e310 d2bd 8563 973e a12e 21bf 5b1b b4be
00000040: 0ea8 e4be 46a0 163e 61ba cb3e f641 5dbe
00000050: 079a 3a3e f694 b2be 09f2 653e 2956 0bbf
00000060: c437 0dbf 6dc6 b0be 3234 20be b260 033e
00000070: 01db f13e 53e9 993e 30a6 97bd d10a fabd
00000080: 2dc3 04bf beb3 96be 2258 39bf b264 623e
00000090: 072e 5ebf 2c6f 2bbe 8508 abbe e674 26bf
000000a0: 0ff4 c43e 8058 09bf f1b5 383e 7b94 d1be
000000b0: fa8c 863c 2735 0abf 8e23 edbd 896c c7bb
000000c0: 2318 f0be e401 193d 78d6 523c 3d73 95bf
000000d0: b91a 18bd d3f7 10bf 1e31 54bf 1953 5dbf
000000e0: 7cc1 3d3f 6cd6 553d 273b 0c3f 20a1 9ebd
000000f0: 4d51 d53e 97d4 94bd bedf f2be ee9b 513e
00000100: d848 3fbe 4cf3 90be 205c 0cbf c576 263f
00000110: fb3c cf3d 9fc6 76bd f432 39bf c5c7 163f
00000120: a3ba d2bd 67b7 d83e 5399 05be 612d afbd
00000130: 6094 043f c882 103d d6ce 98be 9f03 03bf
00000140: 4f60 12bf 3155 b2bd dee8 db3e c8b2 06bf
00000150: be2a d93d 5418 a4be 2392 43be aa6a 603c
00000160: fed6 573b 3a33 43be eacb 5cbf 1ecd b4be
00000170: ab13 de3e d52b 51bf b377 963c 3899 0fbf
00000180: 4062 a33e 0837 4fbf 9a94 bc3d 280e 09bf
00000190: 8aa3 6abf 9d18 14bf dfa5 3b3e 7211 16be
000001a0: 533b 873e 96dc 4abe a5e7 8e3e c505 b33e
000001b0: 559b 6cbe 201d f33e a45e bc3e 610c ab3c
000001c0: 8d66 a0be acb6 7ebe 3501 62bf 6949 b7be
000001d0: ed26 343e b01f 6fbd 46fd aebe 812a 963d
000001e0: b93c 54bd b5ff ba3e 0849 723d 83bb b1bf
000001f0: da16 91be f261 28be 48a0 5fbe 07d7 84be
00000200: fa1d 18be 1972 d9bc 93f5 c6be b134 033f
00000210: d2bf 703d 96af 1bbb f562 98bc e4c7 8fbe
00000220: ac82 3fbf b327 a83e 90c8 10be e4ba a4be
00000230: 67ac 22bf b0cf 903e 6e39 debe 4dbe 1e3e
00000240: 7e6d 913e 417d 38bf 0a08 f1bd 51e9 c53e
00000250: 71c6 efbe f772 33be 7a75 763b 2252 d03e
00000260: 8296 36be a019 9f3e 1900 24be 51df f8be
00000270: 324b 1bbf 1dea 0fbf 21ec 823e 6bb0 6e3c
00000280: 2638 573f 2676 e63d 4932 e2bd 0e58 5b3e
00000290: dd09 533e 812c 57be 71a8 ab3e ab7b 7d3e
000002a0: 7b0b 033c eaa9 e53e ab60 2ebc b08b 453e
000002b0: 00ce 8bbf d56f bbbd 1ae7 ab3e bc19 9dbb
000002c0: 1e78 c23e 854c 963e 584e 913e f245 04bf
000002d0: 5efa b33e b9c7 e53e cd34 f03d a8bd 56bf
000002e0: a3ce 4fbf 4efd 033e f3b1 523d ba83 833e
000002f0: 356a 603e 3ac6 01bf 1ae3 28bd c79d 9fbf
00000300: f1ce 943d feb7 af3e e6ec bd3c d141 233d
00000310: d20f 023f 84e4 f5be ff45 153f 2a56 59bc
00000320: ee8d b2be 34b0 e53d 4f09 47bf 0389 f33c
00000330: d93b 5dbf 8f7c 593e bf07 3cbf 9504 923e
00000340: c438 8ebe f6c7 20bf 8613 33bf 4237 eb3e
00000350: 6804 033f 0518 e43e 083a 98bf 6aff ce3e
00000360: aa66 96bd 648a 12bf 5ca2 2ebe fa2d 043f
00000370: d325 f6bd 74ce b63e a6ef 3e3e 623e 93bd
00000380: f847 863d 112a fabb 287c 87be 9f21 1d3f
00000390: 960a 1c3d 9bd8 b83e 0dbb 453e 8a5a 84be
000003a0: 58ea 02bf 00c9 c23d 040e dc3d 1efd a83d
000003b0: 7890 a63e 56e2 41bd 100c 173f fbc4 2cbf
000003c0: eab4 0b3e 90d0 393d af32 923a c820 8b3d
000003d0: 90f0 e8be a265 c23d b8ad fcbd ebee 0bbf
000003e0: ccb8 dbbe 1398 d4be 8e2f eb3d 92d1 9b3e
000003f0: 31cb 4ebe 7696 02be b4e0 583e b93e 94bc
-0.22820684 -0.12005427 -0.5312426 -0.09453618 -0.0576298 0.21618079 -0.06604249 0.010576473
-0.227084 -0.4529274 -0.44379425 -0.65406144 -0.10257127 0.29568115 -0.62961775 -0.3517712
-0.44659466 0.14709577 0.39790633 -0.21607193 0.1822282 -0.34879273 0.2245561 -0.54428345
-0.55163217 -0.34526387 -0.15644911 0.12829855 0.472374 0.30060825 -0.074047446 -0.12209094
-0.51860315 -0.29434007 -0.72400105 0.22108725 -0.8678898 -0.16741627 -0.33404937 -0.6502212
0.38467452 -0.53650665 0.18038155 -0.40933594 0.016424645 -0.53987354 -0.11579047 -0.0060859364
-0.46893415 0.03735532 0.012868516 -1.1675793 -0.03713486 -0.5662815 -0.82887447 -0.8645492
0.7412336 0.05220644 0.5477776 -0.07745576 0.4166359 -0.07267111 -0.47436327 0.20469639
-0.18680131 -0.2831062 -0.5482807 0.6502498 0.10119053 -0.060248014 -0.72343373 0.58898574
-0.102895044 0.42327425 -0.1304677 -0.08553577 0.517889 0.035280973 -0.29845303 -0.511774
-0.57178205 -0.08707655 0.429511 -0.5261655 0.106038556 -0.3204981 -0.19098715 0.013697306
0.0032934542 -0.1906251 -0.8624865 -0.35312742 0.4337438 -0.8170751 0.018367624 -0.5609317
0.31910896 -0.80943346 0.09208031 -0.53537226 -0.9165579 -0.57850057 0.18324994 -0.14655092
0.26412448 -0.1981071 0.27911106 0.3496534 -0.2310613 0.47483158 0.36790955 0.020879926
-0.3132824 -0.24874371 -0.8828309 -0.35798195 0.17592974 -0.05837983 -0.34177607 0.07332326
-0.051815722 0.36523214 0.05915168 -1.3885349 -0.28337747 -0.16443613 -0.21838486 -0.25945303
-0.14855185 -0.026543664 -0.38859233 0.51252276 0.058776684 -0.002375578 -0.018601874 -0.28082192
-0.74808764 0.32842788 -0.14139009 -0.32173836 -0.63544315 0.28283453 -0.4340319 0.15502281
0.28403848 -0.7206612 -0.117691115 0.3865457 -0.46831086 -0.17524324 0.0037606643 0.40687662
-0.17830852 0.31074238 -0.16015662 -0.48607877 -0.60661614 -0.56216604 0.25570777 0.0145684285
0.8407005 0.11253004 -0.110447474 0.21420309 0.20609231 -0.2101307 0.33526948 0.24754207
0.007998343 0.44856197 -0.010643165 0.19291568 -1.0922241 -0.0915219 0.33574754 -0.0047943275
0.37982267 0.29355255 0.28380084 -0.5166923 0.35151953 0.4487894 0.11728821 -0.8388314
-0.8117468 0.12889597 0.051439237 0.25686437 0.21915515 -0.50693095 -0.041232206 -1.2470025
0.072660334 0.34320062 0.023184251 0.03985769 0.5080539 -0.48025906 0.5830993 -0.013265172
-0.3487391 0.11215249 -0.7774858 0.029728418 -0.86419445 0.21238922 -0.7344932 0.2851912
-0.27777684 -0.62805116 -0.69951665 0.45940596 0.511786 0.44549575 -1.189271 0.4042924
-0.073438 -0.5724242 -0.17054123 0.51632655 -0.12018933 0.35704386 0.18646106 -0.07189633
0.06556696 -0.0076344092 -0.2646191 0.61379427 0.038096033 0.36102757 0.19309635 -0.25850326
-0.5113883 0.09510994 0.10744861 0.08251403 0.32532096 -0.04733499 0.5900278 -0.6748807
0.13643232 0.045364916 0.0011154021 0.06793362 -0.45496035 0.09492041 -0.12337822 -0.54661435
-0.42914426 -0.41522273 0.1148368 0.30433327 -0.20194699 -0.12752709 0.21179467 -0.018096315

residual_block_2.block.3.bias f4 [128]
00000000: de89 5cbe e79e debd f012 8abd 2c7c a13d
00000010: d757 55bd 157a 783d 2c03 05be fa30 ac3c
00000020: e5c8 853c 9163 f1bc 3f56 f23d 5727 123d
00000030: f545 96bd 94ad 6b3d 872d 323d b13c d8bd
00000040: 7aca a7bd a906 fabd 8a33 243e ae64 db3d
00000050: aa35 cb3d 4a3a 0abd 94af 273d b0d2 8f3d
00000060: 6169 91bd f3a7 c13d 69d0 36be e0c6 d63d
00000070: e782 8c3d 0941 01be e65c 2fbc 00e8 b5bd
00000080: 95e1 f83d 7cf9 993d feb4 ac3d 4dc1 823d
00000090: eb57 743d ec51 17be bc9a c33d 426f 02be
000000a0: 1fd6 a63d 5b2b 143e b9b1 c7bb 7dd7 70bd
000000b0: 435b d23d e09e 053e 10d6 32bd 4892 0abe
000000c0: f176 8a3d 5e1a e23b 7632 6c3e ba18 f23d
000000d0: 9bbb 443e d1b7 2abe 9b77 4a3c 1850 bc3d
000000e0: 9f7a 343d 9d8a f7bd bff4 3cbd e960 233d
000000f0: 076f 4bbe 7aca 9dbd 1515 163e f47a 0d3d
00000100: c998 7cbc febe bcbd 5413 183e 79a9 ec3c
00000110: dc6f 253e b070 c3bd 268d 863e 4749 d13d
00000120: 5f6d 003e e2b6 1a3d c156 ee3c 9380 733c
00000130: a8e3 2f3b 842a ef3d 0c88 9cbc 064c 63bc
00000140: c017 adbc 8754 583e 8ef7 243d 3f26 243d
00000150: e58b 443d fad4 333d 96f7 693c 18df 7abc
00000160: bf22 6e3d 56db 663c e7bc e83d f278 9b3d
00000170: 171c 3cbc 8b6a 9e3d 7e56 103e c64c 2dbe
00000180: 95fb 05bc b1af 0bbe a64d 3ebd 9bc8 d2bd
00000190: ee2f 443d 0011 063c d094 11be 61f7 6ebd
000001a0: 98bb 0c3e e523 96bd 2e6e cfbb 5187 753d
000001b0: c000 eb3d 4546 5cbb f2bb 36bd e39f 88bd
000001c0: 54c5 40be b925 8cbc 8945 c9bd 9dc1 08be
000001d0: 42a2 cdbc 79f4 563d 9fdf 2a3d 0091 e83d
000001e0: 5201 cb3d 89fb 62bd 5b02 763e 73d3 103e
000001f0: 2ea3 f4bd bf1e b6bd 26a5 b0bd 3f14 25bc
-0.21536967 -0.10870152 -0.06741893 0.07885012 -0.052085724 0.0606633 -0.12989491 0.021019448
0.016331146 -0.029466422 0.118328564 0.03568205 -0.07337562 0.057538584 0.04350045 -0.10558451
-0.08192916 -0.122083016 0.16035286 0.107125625 0.09922345 -0.033746995 0.04093893 0.07022607
-0.071001776 0.09455862 -0.1785294 0.10487151 0.06860905 -0.12622465 -0.010703301 -0.08882141
0.12152401 0.075182885 0.08432959 0.063845254 0.059654158 -0.14777344 0.095509976 -0.12737754
0.08146309 0.14469664 -0.0060941842 -0.058799256 0.10271313 0.13048887 -0.043661177 -0.13532364
0.067609675 0.006900116 0.23066124 0.118211225 0.19212191 -0.16671683 0.012357618 0.09194964
0.044062253 -0.12086985 -0.046131846 0.039887343 -0.19866572 -0.07704635 0.1465648 0.034541085
-0.015417286 -0.09216116 0.14851123 0.028889405 0.16155952 -0.09542978 0.26279563 0.10219055
0.12541722 0.037772067 0.029094102 0.014862197 0.0026838575 0.11678031 -0.019107841 -0.013873106
-0.021129489 0.21125995 0.04027515 0.040075537 0.047984976 0.043904282 0.0142802205 -0.015311979
0.058138605 0.01409038 0.11364155 0.07591428 -0.0114813065 0.07735165 0.14095494 -0.16923818
-0.008177658 -0.1364124 -0.04646077 -0.10292169 0.04789727 0.008182764 -0.14216924 -0.058341388
0.13743436 -0.07331065 -0.006330273 0.0599435 0.114747524 -0.003361122 -0.044612832 -0.06671121
-0.18825275 -0.017107831 -0.09827716 -0.13355108 -0.025101785 0.05247924 0.041717168 0.113557816
0.09912361 -0.055415664 0.24024336 0.14143161 -0.119451866 -0.08892583 -0.086252496 -0.010075628

residual_block_2.block.4.weight f4 [128]
00000000: 905f 583f 2c9b 5a3f ac39 613f c8c5 363f
00000010: 8e10 433f 787c 793f 289c 553f ddd9 5f3f
00000020: a627 313f 53d5 2c3f 8554 5f3f c812 723f
00000030: 9c7f 693f 473f 423f 06da 5d3f d74a 5e3f
00000040: 95d8 853f a097 693f ab52 3c3f 6668 6d3f
00000050: e5b3 513f f1d8 263f dd0b 5d3f ca15 5a3f
00000060: f34c 663f 68c8 383f b140 553f 5267 693f
00000070: 1669 283f d6a0 563f d807 463f 5bd7 6b3f
00000080: 67c5 7a3f 5c3f 5e3f 8a56 753f 2ee5 413f
00000090: 2e69 623f d2e7 1a3f 76d8 813f 9a59 863f
000000a0: f932 6a3f 9a2e 443f a319 6c3f 6a91 533f
000000b0: 059f 543f e460 743f 3c20 763f 139c 653f
000000c0: 27ad 1e3f 0405 643f c067 813f 7b85 5d3f
000000d0: d84d 723f 92e7 833f 5cc7 633f 4925 163f
000000e0: 691a 6b3f e26c 733f 35b4 353f 69cd 593f
000000f0: 0013 603f 1f45 613f b865 4f3f 3e8d 7c3f
00000100: 1778 583f 3af6 533f 1b4f 333f c478 643f
00000110: 8384 663f c3e5 2f3f 3318 333f 15ef 713f
00000120: 50b8 493f e103 643f 65ec 503f 97f1 4c3f
00000130: 160c 563f f107 7b3f c5a9 693f 191c 6f3f
00000140: 0f07 1e3f 547c 723f 6306 383f 89ed 6d3f
00000150: 5ff4 393f 3ea7 3b3f 1cfc 683f 9466 873f
00000160: 22f6 1b3f b2ec 633f bac1 803f 4a04 583f
00000170: 56da 413f 1968 7c3f 3552 893f c313 2f3f
00000180: 0372 823f 1a6b 803f e93d 663f 6997 0f3f
00000190: 6be9 413f 82aa 363f 3023 653f 005e 5c3f
000001a0: cfc2 643f f02f 5a3f 81fc 643f 6e18 3a3f
000001b0: d257 673f d821 743f 89bc 4b3f ebd2 663f
000001c0: 274b 0c3f bbb4 643f e32f 563f 30de 863f
000001d0: 0ea9 463f 57e5 6a3f dbe3 3e3f e588 2a3f
000001e0: 6eaa 4a3f 2e80 623f 08c1 603f f794 303f
000001f0: 5a6c 283f e3c1 363f ee74 693f cd70 6c3f
0.84520817 0.85393023 0.87978625 0.7139554 0.76197135 0.9745555 0.834414 0.8744181
0.69201124 0.67513007 0.8723834 0.9455991 0.9121034 0.75877804 0.866608 0.86832947
1.045672 0.91246986 0.7356364 0.92737424 0.8191512 0.65174776 0.86346227 0.851895
0.89961165 0.72180796 0.83301836 0.9117328 0.6578535 0.83839166 0.7735572 0.9212548
0.9795746 0.8681543 0.95835173 0.75740325 0.8844174 0.6050998 1.0144184 1.0496094
0.9148403 0.7663361 0.9222662 0.8264376 0.83055145 0.95460343 0.96142936 0.89691275
0.6198296 0.89070153 1.0109787 0.865318 0.9465003 1.0305045 0.88976073 0.5865064
0.91837174 0.95088017 0.709781 0.85079056 0.8752899 0.87996095 0.81014585 0.9865302
0.8455824 0.82797587 0.7004258 0.89246774 0.90045947 0.68709964 0.699588 0.94505435
0.78796864 0.8906842 0.8161071 0.80056137 0.8361219 0.9805899 0.9127467 0.9340225
0.6172952 0.9472096 0.71884745 0.92940575 0.72638506 0.73302066 0.9100969 1.0578179
0.60922444 0.89033043 1.0059121 0.84381545 0.7572378 0.9859634 1.0728213 0.6838953
1.0191044 1.0032685 0.8993822 0.5609041 0.7574679 0.71353924 0.89506817 0.8608093
0.89359754 0.85229397 0.8944779 0.72693527 0.9036838 0.9536414 0.79584557 0.90165585
0.54802173 0.8933827 0.8366682 1.0536556 0.77601707 0.91756195 0.7456643 0.66615134
0.79166305 0.88476837 0.8779454 0.689773 0.6579033 0.713896 0.91194046 0.9235962
